ContinuousNetworkTheta/TrainedModels/BcsTrainedModel.pt (torch, 404194 bytes, 59 tensors)

parametric_part.embed.weight f4 [58, 3]
0.3341269 -0.29146937 -0.1190808 0.33951825 -0.6120658 0.36435443 -0.17654832 0.3514968
0.06434863 -0.026219374 0.11566056 0.002745071 0.20823236 -0.22236174 -0.03763669 -0.058037378
0.08974354 0.015682217 0.4940338 0.19033164 -0.22920512 -0.36751178 -0.0779583 -0.28710166
-0.19217688 0.034810115 0.34337196 0.35421923 -0.60479605 0.364536 0.13566199 0.5732758
0.3609373 -0.51637787 -0.5586172 -0.28729546 0.51810426 -0.107295595 0.26004848 -0.3906422
0.68884695 -0.22776322 0.4282246 0.01158094 -0.34497944 0.3891071 -0.39880964 0.2126288
-0.15595499 -0.074056536 -0.52434075 -0.3034838 0.34150365 -0.14474581 0.63484687 0.40301982
-0.07444379 -0.42986354 0.39607647 0.18448347 -0.43289816 0.4347023 0.28444347 0.5808467
-0.39243716 -0.0517909 -0.09043664 0.16357878 -0.46136683 -0.44616705 0.35054755 -0.14769879
0.29396513 0.020969886 0.18400265 0.08702877 0.24984811 0.32048982 -0.5130279 0.26894698
-0.4455089 -0.4235775 0.023072565 -0.12441359 0.38480008 -0.3800725 -0.54003936 0.4523374
-0.11777064 0.35113287 0.2176347 -0.46496633 0.1216765 0.14617397 -0.39406568 -0.22206132
0.21475796 0.08552046 -0.21850891 -0.31052634 0.6645372 -0.06326529 0.33883876 0.23666044
-0.41364518 -0.51862365 0.5818201 0.06382814 0.44725022 0.06814444 0.22931433 0.41529286
0.5634148 -0.41279146 0.031410433 0.47162682 0.40423223 0.4083288 -0.4674959 -0.4480923
-0.3739336 0.097300954 0.57348865 -0.34733856 0.29029942 -0.32233647 -0.5341954 -0.13135035
0.36051765 0.5857175 -0.40827757 0.15355065 0.48325807 0.39749768 0.38110682 0.3898587
0.3856087 0.15922643 -0.38366762 -0.4959709 -0.26582322 -0.052414604 -0.3687039 0.19752187
0.19826059 -0.15031019 0.20577957 0.14727597 0.3918106 0.39954704 -0.2249422 0.59350556
-0.10111717 -0.02163947 -0.54314584 -0.3958857 -0.34037498 -0.24386065 0.40719223 -0.13710985
-0.48299953 0.18899758 0.17780112 0.38099322 -0.2908101 0.14324036 -0.2282469 -0.14690363
-0.46722636 -0.2560084 -0.18698224 0.28652307 0.06584809 0.11918695
00000000: ae12 ab3e 793b 95be a2e0 f3bd 56d5 ad3e
00000010: 58b0 1cbf aa8c ba3e 15c9 34be 63f7 b33e
00000020: 37c9 833d 03ca d6bc 72df ec3d a6e6 333b
00000030: dd3a 553e ccb2 63be ee28 1abd 9ab8 6dbd
00000040: 76cb b73d fe77 803c 00f2 fc3e 4ce6 423e
00000050: bfb4 6abe 812a bcbe 9aa8 9fbd fdfe 92be
00000060: 04ca 44be 0d95 0e3d 73ce af3e 395c b53e
00000070: ead3 1abf 76a4 ba3e faea 0a3e 34c2 123f
00000080: c6cc b83e 5731 04bf 8901 0fbf 6418 93be
00000090: 7ba2 043f cbbd dbbd 1325 853e 4102 c8be
000000a0: 4658 303f c33a 69be 4140 db3e fcbd 3d3c
000000b0: 25a1 b0be 0c39 c73e c730 ccbe 5dbb 593e
000000c0: aab2 1fbe f4aa 97bd 323b 06bf 3b62 9bbe
000000d0: 91d9 ae3e 3f38 14be 5385 223f 9d58 ce3e
000000e0: fc75 98bd 1317 dcbe 89ca ca3e 3ce9 3c3e
000000f0: d4a4 ddbe 4d91 de3e 93a2 913e 5fb2 143f
00000100: 86ed c8be b222 54bd d836 b9bd 3281 273e
00000110: 4638 ecbe 0270 e4be f87a b33e 5a3e 17be
00000120: 9982 963e 0ac9 ab3c 316b 3c3e 243c b23d
00000130: 2fd8 7f3e 3e17 a43e cc55 03bf 6bb3 893e
00000140: be19 e4be 26df d8be ad02 bd3c 8dcc febd
00000150: 8404 c53e dd98 c2be 0540 0abf c598 e73e
00000160: bc31 f1bd b0c7 b33e a1db 5e3e 1110 eebe
00000170: 8731 f93d a1ae 153e fac2 c9be 0b64 63be
00000180: 83e9 5b3e 5a25 af3d cdc0 5fbe 4ffd 9ebe
00000190: 1c1f 2a3f 3b91 81bd 467c ad3e 1d57 723e
000001a0: 4dc9 d3be 85c4 04bf 29f2 143f 54b8 823d
000001b0: fbfd e43e 508f 8b3d 60d1 6a3e 44a1 d43e
000001c0: f43b 103f 6759 d3be 3aa8 003d 1279 f13e
000001d0: 87f7 ce3e 7910 d13e 9f5b efbe 5b6c e5be
000001e0: 3a74 bfbe b945 c73d 27d0 123f 5cd6 b1be
000001f0: 20a2 943e 4909 a5be 08c1 08bf b580 06be
00000200: c595 b83e 95f1 153f c209 d1be 623c 1d3e
00000210: 9a6d f73e d184 cb3e 6f20 c33e 8f9b c73e
00000220: 816e c53e 410c 233e 1570 c4be e6ef fdbe
00000230: fb19 88be b2b0 56bd c2c6 bcbe 2c43 4a3e
00000240: d304 4b3e eaea 19be e1b7 523e 83cf 163e
00000250: 669b c83e 6e91 cc3e 4057 66be fbef 173f
00000260: 8516 cfbd 4245 b1bc 9b0b 0bbf 88b1 cabe
00000270: a145 aebe 9bb6 79be 807b d03e 8666 0cbe
00000280: b74b f7be 9588 413e 7f11 363e 8b11 c33e
00000290: 10e5 94be 9aad 123e 8eb9 69be e86d 16be
000002a0: 4b38 efbe 8813 83be 4678 3fbe 27b3 923e
000002b0: 5ddb 863d 4a18 f43d

parametric_part.embed.bias f4 [58]
0.5729353 0.60908675 0.37456754 -0.011596753 -0.4101582 0.4758856 -0.15154232 -0.08229987
-0.46667215 -0.12353939 -0.3787901 0.5212137 -0.52247036 -0.4015546 -0.05955419 -0.24300395
0.15805969 -0.23420404 -0.3268601 0.040518507 0.33261895 -0.41292983 0.24474606 0.3675679
0.53513104 -0.41096812 0.11211391 -0.43824401 0.48205826 -0.2394395 0.36305496 0.072083406
-0.0091333445 0.028569773 0.09192707 0.2842832 0.1533324 0.15714945 -0.4836256 0.3828321
0.50049335 0.49108505 0.45582312 -0.49241897 -0.20760588 0.49608198 -0.4183944 0.4920074
-0.50140077 -0.4040067 0.24373353 -0.45748636 -0.1352714 0.38335368 0.46913713 0.57183105
-0.12512606 -0.52184236
00000000: e3ab 123f 1ced 1b3f 51c7 bf3e 4f00 3ebc
00000010: 4100 d2be 47a7 f33e e92d 1bbe d68c a8bd
00000020: a7ef eebe 3802 fdbd c7f0 c1be 436e 053f
00000030: 9ec0 05bf 9198 cdbe 18ef 73bd 07d6 78be
00000040: 66da 213e 2fd3 6fbe 355a a7be bcf6 253d
00000050: 084d aa3e 8a6b d3be b69e 7a3e dc31 bc3e
00000060: 59fe 083f 6a6a d2be fa9b e53d 8561 e0be
00000070: 57d0 f63e a12f 75be 57e2 b93e 77a0 933d
00000080: 06a4 15bc 280b ea3c 4244 bc3d 918d 913e
00000090: 2b03 1d3e c9eb 203e c69d f7be 9202 c43e
000000a0: 5520 003f 806f fb3e a661 e93e 571e fcbe
000000b0: a396 54be 75fe fd3e ca37 d6be 65e8 fb3e
000000c0: cd5b 00bf f7d9 cebe 4895 793e a73b eabe
000000d0: 9684 0abe ef46 c43e be32 f03e 8563 123f
000000e0: 0c21 00be 7697 05bf

parametric_part.lift_U.weight f4 [58, 58]
0.12078312 -0.02489908 -0.050113324 0.026132738 -0.09088706 0.10060009 0.05277723 -0.102120146
-0.10007493 -0.015743561 0.06402795 -0.011010779 -0.071780816 0.007324398 -0.12755884 -0.08998269
-0.08855671 0.10716451 0.11937961 -0.074509285 -0.011163658 0.04097873 0.03744746 -0.06564557
0.077717476 0.08019608 -0.0057630306 0.005350334 0.10349017 0.11225387 -0.07594017 0.13568905
0.03206532 -0.086216606 0.078380406 -0.08039006 0.11862442 -0.070690915 0.048145965 0.064027816
0.0073012835 0.11960536 -0.05494137 -0.0625728 -0.13176206 -0.0028938535 -0.06602837 0.006754807
-0.023939406 0.044260293 0.11102106 0.05661692 -0.044988703 -0.0655466 -0.11272026 0.09765932
-0.021277249 0.028031796 0.004968643 -0.060478356 0.07201818 0.07388031 0.012147509 -0.08522772
-0.047225256 0.008980494 -0.054070983 -0.095871046 0.011269529 -0.045945704 0.034778003 -0.047794066
0.004870046 -0.044738155 -0.10099284 0.11590227 0.028051905 0.09053135 -0.030051528 -0.05225664
-0.10743875 -0.055914182 0.089287035 -0.112661876 -0.015585615 0.092454925 0.07720132 0.044040725
-0.029367244 -9.204727e-05 -0.020337734 -0.06238656 0.06593884 -0.03745694 -0.078390606 0.043242622
-0.06542883 -0.0030746064 0.039390948 0.036876287 0.12046438 -0.08201655 -0.009157721 -0.037555914
-0.07583245 -0.07050837 0.0395084 0.03852214 -0.07822176 -0.09110035 -0.116055876 0.124296375
-0.029551212 -0.034990694 -0.042869583 -0.06542974 -0.115584776 -0.1217447 0.08126466 0.03116126
-0.038189135 -0.0847955 0.036753684 0.091996245 0.12344628 0.03262397 0.08137549 -0.009391032
-0.07681516 -0.15189388 0.085518554 -0.03308447 -0.028204884 -0.0018273685 -0.11977933 -0.067337915
0.020403259 -0.046875954 -0.12552464 0.040390097 0.0060800356 -0.051175673 0.03928903 0.019823737
-0.071139246 0.098269165 0.080104105 0.007776582 -0.037099104 -0.10504693 0.103383616 -0.0052040457
-0.0825079 0.08475971 0.07898691 0.04324207 -0.08836138 -0.014356558 0.033188645 0.11182599
0.011673158 -0.06157857 0.13824661 0.004610243 0.105504066 0.020191455 0.110146984 0.068034604
-0.0707242 0.093494445 0.0058133123 -0.109413795 -0.0279442 -0.11627196 -0.06057456 -0.09038228
0.08776665 -0.019178398 -0.027139895 0.053908587 0.06632769 -0.0892448 0.038772486 0.07281107
-0.1148038 0.123309344 -0.07854268 -0.04848924 -0.106991895 0.1172696 0.004240886 0.11162329
0.00013418644 0.099618845 -0.023329386 -0.095647015 -0.0038255623 -0.0072563565 -0.018777665 -0.062185753
-0.00917881 0.017150853 0.06879015 -0.099270895 0.06046282 0.0049498742 0.089064814 0.08288558
-0.112889454 0.14070399 -0.12443365 0.061469097 -0.0028496415 0.04456535 -0.051045362 0.07965146
-0.06590363 -0.11939655 0.062805206 0.06451584 0.1371363 -0.018729227 0.119888306 0.08429585
-0.05877905 -0.12143714 0.080960535 -0.07505041 0.059201147 -0.096247435 0.0896511 0.033607528
-0.023721732 0.06286204 -0.09069821 -0.035221353 0.0045828116 -0.06369458 -0.028533785 -0.0520176
0.13775815 0.12035984 0.12330707 0.097188324 -0.12595768 0.05775016 0.05148264 -0.08614144
0.057703525 -0.06708176 0.026695982 0.008107886 0.10223233 -0.090379335 -0.07483571 0.118701786
00000000: 245d f73d 28f9 cbbc a143 4dbd 5314 d63c
00000010: ff22 babd 6c07 ce3d f02c 583d 5e24 d1bd
00000020: 16f4 ccbd a4f8 80bc 1621 833d 8e66 34bc
00000030: d201 93bd 8101 f03b c99e 02be d848 b8bd
00000040: 385d b5bd 1179 db3d 4c7d f43d 5398 98bd
00000050: c7e7 36bc 50d9 273d 8262 193d 2f71 86bd
00000060: 572a 9f3d d83d a43d ced7 bcbb db51 af3b
00000070: a7f2 d33d 5be5 e53d 8586 9bbd 12f2 0a3e
00000080: ed56 033d 5592 b0bd e885 a03d 8ba3 a4bd
00000090: 5cf1 f23d 66c6 90bd b434 453d 0421 833d
000000a0: 9b3f ef3b a8f3 f43d 340a 61bd 2b26 80bd
000000b0: a2ec 06be cea6 3dbb e239 87bd 6e57 dd3b
000000c0: 931c c4bc 484a 353d 025f e33d 25e7 673d
000000d0: 1346 38bd 4c3d 86bd e1d9 e6bd 9c01 c83d
000000e0: a04d aebc f0a2 e53c 00d0 a23b 27b8 77bd
000000f0: 447e 933d 8f4e 973d 5806 473c df8b aebd
00000100: 456f 41bd ec22 133c 8979 5dbd 0a58 c4bd
00000110: d5a3 383c 9031 3cbd 6173 0e3d b6c3 43bd
00000120: e894 9f3b 5b3f 37bd 56d5 cebd 2b5e ed3d
00000130: 1ccd e53c 8068 b93d 9f2e f6bc 0f0b 56bd
00000140: d908 dcbd 4506 65bd 1fdc b63d 45bb e6bd
00000150: cf5a 7fbc 0259 bd3d ba1b 9e3d 0c64 343d
00000160: 9393 f0bc 8009 c1b8 529b a6bc 0d89 7fbd
00000170: f10a 873d 736c 19bd 418b a0bd 2d1f 313d
00000180: 8dff 85bd 567f 49bb 6758 213d 970b 173d
00000190: 07b6 f63d 4bf8 a7bd 440a 16bc 3bd4 19bd
000001a0: 0b4e 9bbd b166 90bd 8fd3 213d 64c9 1d3d
000001b0: bb32 a0bd d292 babd b4ae edbd 198f fe3d
000001c0: 6215 f2bc 6752 0fbd 0498 2fbd 0700 86bd
000001d0: b6b7 ecbd 4955 f9bd 166e a63d e645 ff3c
000001e0: 366c 1cbd 43a9 adbd 088b 163d 8768 bc3d
000001f0: 67d1 fc3d b6a0 053d 31a8 a63d d8dc 19bc
00000200: 4451 9dbd 128a 1bbe 5a24 af3d 9583 07bd
00000210: ee0d e7bc 5084 efba de4e f5bd 76e8 89bd
00000220: bc24 a73c 0001 40bd 8889 00be 1670 253d
00000230: 093b c73b 959d 51bd 89ed 203d 6465 a23c
00000240: 74b1 91bd 5841 c93d 9f0d a43d b3d2 fe3b
00000250: 3bf5 17bd d822 d7bd caba d33d b386 aabb
00000260: e7f9 a8bd 8096 ad3d e4c3 a13d 991e 313d
00000270: d0f6 b4bd c537 6bbc d1f0 073d 0605 e53d
00000280: c640 3f3c d039 7cbd 8590 0d3e 8511 973b
00000290: 8412 d83d 8d68 a53c be94 e13d ba55 8b3d
000002a0: d9d7 90bd 047a bf3d 997d be3b 5714 e0bd
000002b0: 3ceb e4bc fe1f eebd 081d 78bd 581a b9bd
000002c0: 00bf b33d 041c 9dbc 7c54 debc 40cf 5c3d
000002d0: d0d6 873d fac5 b6bd e6cf 1e3d f81d 953d
000002e0: 411e ebbd 9c89 fc3d fcda a0bd a79c 46bd
000002f0: 911e dbbd 0b2b f03d 21f7 8a3b c09a e43d
00000300: 66b4 0c39 f704 cc3d 451d bfbc 95e2 c3bd
00000310: 49b6 7abb bbc6 edbb 9ed3 99bc 7db6 7ebd
00000320: b862 16bc f27f 8c3c dae1 8c3d 8a4e cbbd
00000330: dda7 773d 8e32 a23b 9d67 b63d eabf a93d
00000340: 9632 e7bd b514 103e 12d7 febd 05c7 7b3d
00000350: 0dc1 3abb 288a 363d f114 51bd 4e20 a33d
00000360: 7bf8 86bd 2e86 f4bd 04a0 803d e120 843d
00000370: 756d 0c3e 096e 99bc 0088 f53d 4da3 ac3d
00000380: 4dc2 70bd 09b4 f8bd a3ce a53d 08b4 99bd
00000390: e77c 723d 601d c5bd ff9a b73d 0ca8 093d
000003a0: 1454 c2bc d0bd 803d fcbf b9bd 4444 10bd
000003b0: 692b 963b 4e72 82bd afbf e9bc 6810 55bd
000003c0: 7910 0d3e 387f f63d 6b88 fc3d ac0a c73d
000003d0: 0dfb 00be 6f8b 6c3d 76df 523d ec6a b0bd
000003e0: 885a 6c3d 2962 89bd 88b1 da3c f0d6 043c
000003f0: 2f5f d13d cd18 b9bd 7743 99bd ec19 f33d

parametric_part.lift_U.bias f4 [58]
-0.049607772 0.010219259 0.049218185 0.0026246298 -0.05171439 -0.11141581 -0.08282519 -0.13399
-0.022031207 -0.09903863 -0.052268296 0.10257291 -0.13609466 0.07245807 -0.068291545 -0.09870705
0.12738508 0.09989694 -0.07815973 0.0017696779 -0.049016323 -0.06653228 0.062655464 0.061512478
0.10865814 -0.07287931 -0.042475298 0.07490567 -0.062433995 0.1013553 0.0010881493 0.020039838
0.052424893 0.07416854 0.037146974 -0.08376251 0.121946916 -0.054684147 0.020029327 -0.12750205
-0.09019402 0.085574865 0.020007858 0.020400548 -0.05593683 -0.10310494 0.1047654 -0.088527545
0.10069661 -0.08148893 0.105625734 0.0007750227 -0.07907537 0.12482196 0.11030478 -0.063453175
-0.09036323 -0.039753195
00000000: 8531 4bbd ae6e 273c 0299 493d fb01 2c3b
00000010: 78d2 53bd f92d e4bd 41a0 a9bd ad34 09be
00000020: ca7a b4bc c4d4 cabd 4817 56bd bf11 d23d
00000030: 665c 0bbe e664 943d 70dc 8bbd ec26 cabd
00000040: 3c71 023e c496 cc3d 3512 a0bd 89f4 e73a
00000050: 57c5 48bd 1342 88bd 8251 803d 82f4 7b3d
00000060: 2988 de3d bf41 95bd 94fa 2dbd 2568 993d
00000070: caba 7fbd 5e93 cf3d 3ba0 8e3a 962a a43c
00000080: 7cbb 563d ade5 973d 6d27 183d ae8b abbd
00000090: 4ebf f93d 7cfc 5fbd 8b14 a43c e68f 02be
000000a0: a4b7 b8bd e041 af3d 85e7 a33c 0d1f a73c
000000b0: 041e 65bd af28 d3bd 3e8f d63d ee4d b5bd
000000c0: 063a ce3d abe3 a6bd 4e52 d83d e52a 4b3a
000000d0: 45f2 a1bd a8a2 ff3d 79e7 e13d bdf3 81bd
000000e0: 5b10 b9bd 3fd4 22bd

parametric_part.lift_V.weight f4 [58, 58]
5.6674893e-05 0.08400952 -0.07457038 0.08281573 0.113551974 0.0628335 -0.047078628 0.11070353
-0.029235316 0.037154123 -0.077799074 0.04587142 -0.15784793 0.051863685 -0.07802316 -0.11410495
-0.021953074 0.10143478 0.048111144 -0.12498406 0.068728566 -0.04976601 -0.044473194 -0.16345347
-0.05485178 0.13401973 -0.09071035 0.08272024 -0.018158002 -0.08678792 -0.08233852 0.050004184
0.061041687 0.03248131 0.06620669 -0.13836284 0.017255777 0.039224785 -0.007837048 0.08279649
0.07137518 0.123961255 0.13955034 -0.08115842 -0.04644879 0.089415625 0.08188714 0.01895471
0.05369257 0.023204053 -0.04970913 -0.053491335 -0.054465216 0.06787031 0.123964995 -0.012546238
0.086280555 0.13431539 0.022214547 0.11085421 0.087736025 -0.13251744 -0.102951065 0.055505842
-0.046983734 -0.046560075 -0.03806817 -0.1400905 -0.015708417 0.011781692 -0.004430909 -0.07378202
-0.08478533 0.15280363 0.10761982 -0.043445993 -0.07933203 -0.0478481 -0.040027432 -0.17791288
-0.08213915 0.11847016 -0.026856687 0.080978386 0.041984994 0.03320168 -0.007863743 0.069675185
-0.072537236 -0.06289362 0.05686223 -0.09241413 0.051031526 0.08291439 -0.12878807 -0.06318071
0.014454541 0.080779836 -0.003967379 -0.019011205 -0.013890197 -0.044683784 0.025163244 -0.031660385
-0.081396535 0.12198479 0.1299477 0.07897837 0.119995944 -0.0695351 -0.02127431 -0.09333108
-0.037768517 0.038784906 0.13141237 -0.119151585 0.049417246 0.02217989 0.125196 -0.0003259123
-0.11031812 0.09713902 -0.020998584 -0.009200501 -0.0526182 0.07606235 -0.018437997 -0.12695046
-0.048689872 0.112838924 0.062237035 0.19189817 -0.09408809 0.106323235 -0.10876839 -0.05582886
0.0023511273 -0.2365624 0.11333365 -0.09596307 0.05360053 -0.046132863 0.049631704 0.09683337
0.09483579 0.06889585 -0.16064312 -0.02051916 0.14713179 -0.0635865 -0.055632275 -0.037002403
-0.06257418 0.008401516 -0.068513915 0.17741804 -0.049890805 0.082507804 0.11402439 -0.13074398
0.022008218 -0.09660347 -0.051291004 -0.05828087 -0.049871482 0.015003863 0.03607417 -0.01920225
-0.01567068 0.05378008 -0.16449471 -0.00243002 -0.09065155 -0.026431749 0.08354317 -0.0389817
-0.03153051 -0.16366687 0.10359342 0.052974675 -0.12425177 -0.03899038 0.0745158 -0.11895688
-0.024272617 -0.098312855 -0.10286632 0.010353842 0.027653899 -0.114294976 -0.022910917 -0.08425067
-0.016175563 -0.04366187 0.08063958 -0.023200927 -0.028986046 -0.105110966 0.05170694 -0.166386
-0.12918876 0.048688345 -0.08495836 0.01041367 0.012743818 -0.017812172 0.085076146 -0.048708253
0.07498417 -0.07209178 -0.12656727 -0.09696693 0.026771365 0.029915527 -0.02421209 -0.015761971
-0.058734585 -0.0024099809 0.0019866126 0.02340107 -0.07405507 -0.048137356 0.03825341 -0.039732944
-0.103464834 0.11893297 0.07143521 0.12144006 0.06729723 -0.07177811 0.079454154 0.105391964
0.087520234 -0.09401508 -0.09090727 0.01424828 0.12768908 -0.08235577 -0.03769387 -0.09131635
-0.093784906 0.058200832 0.008257859 0.033919916 0.08996952 0.010888067 0.11126146 -0.059501994
0.05856796 0.022633236 0.03781172 -6.39685e-05 -0.022368817 -0.07123403 -0.037118737 0.12311894
00000000: 34b6 6d38 2f0d ac3d 5bb8 98bd 4b9b a93d
00000010: f08d e83d daae 803d 85d5 40bd 88b8 e23d
00000020: e77e efbc ec2e 183d 1f55 9fbd ace3 3b3d
00000030: e3a2 21be 046f 543d 9bca 9fbd dbaf e9bd
00000040: efd6 b3bc 0abd cf3d 3110 453d a5f7 ffbd
00000050: 90c1 8c3d 72d7 4bbd 8629 36bd 5960 27be
00000060: 43ac 60bd 783c 093e 59c6 b9bd 3b69 a93d
00000070: 17c0 94bc ddbd b1bd 19a1 a8bd 30d1 4c3d
00000080: d906 7a3d 1f0b 053d 6097 873d fdae 0dbe
00000090: fd5b 8d3c 2baa 203d f666 00bc 3591 a93d
000000a0: 262d 923d 66df fd3d 49e6 0e3e 6336 a6bd
000000b0: 1641 3ebd 8a1f b73d 72b4 a73d e846 9b3c
000000c0: beec 5b3d 6d16 be3c cd9b 4bbd bb19 5bbd
000000d0: eb16 5fbd 97ff 8a3d 5ce1 fd3d bc8e 4dbc
000000e0: dcb3 b03d f989 093e 48fb b53c 8807 e33d
000000f0: f2ae b33d a7b2 07be 02d8 d2bd 185a 633d
00000100: 0472 40bd c7b5 3ebd 5fed 1bbd e273 0fbe
00000110: f0ae 80bc ff07 413c 2931 91bb 071b 97bd
00000120: eea3 adbd 8e78 1c3e c867 dc3d 6df4 31bd
00000130: d578 a2bd 5ffc 43bd cef3 23bd cb2e 36be
00000140: 9238 a8bd 7ca0 f23d 8e02 dcbc ffd7 a53d
00000150: 75f8 2b3d 7cfe 073d eed6 00bc ddb1 8e3d
00000160: 678e 94bd 5fce 80bd 5fe8 683d 9f43 bdbd
00000170: 6f06 513d 05cf a93d 05e1 03be e364 81bd
00000180: bdd2 6c3c e66f a53d ca00 82bb 63bd 9bbc
00000190: b593 63bc 5806 37bd 2623 ce3c 52ae 01bd
000001a0: 3ab3 a6bd 29d3 f93d 0311 053e 69bf a13d
000001b0: 6fc0 f53d 6b68 8ebd 7647 aebc 5e24 bfbd
000001c0: 29b3 1abd ecdc 1e3d f790 063e bf05 f4bd
000001d0: bd69 4a3d 9ab2 b53c 6133 003e 35df aab9
000001e0: 77ee e1bd d3f0 c63d 3905 acbc b3bd 16bc
000001f0: 2f86 57bd 94c6 9b3d 480b 97bc 4dff 01be
00000200: 086f 47bd 1818 e73d 43ec 7e3d f480 443e
00000210: 42b1 c0bd ffbf d93d f6c1 debd cdac 64bd
00000220: 5f15 1a3b 6a3d 72be 791b e83d 4988 c4bd
00000230: 3b8c 5b3d d0f5 3cbd 9d4a 4b3d 9350 c63d
00000240: 4439 c23d 4419 8d3d a17f 24be cc17 a8bc
00000250: b7a9 163e a439 82bd abde 63bd d58f 17bd
00000260: e426 80bd 83a6 093c 0651 8cbd 13ad 353e
00000270: 4d5a 4cbd daf9 a83d 9f85 e93d c0e1 05be
00000280: 944a b43c 0ad8 c5bd 8416 52bd ecb7 6ebd
00000290: 0a46 4cbd c3d2 753c 82c2 133d 094e 9dbc
000002a0: cc5f 80bc 8048 5c3d 4d71 28be f840 1fbb
000002b0: 85a7 b9bd 6587 d8bc ae18 ab3d 46ab 1fbd
000002c0: 2326 01bd 4a98 27be c928 d43d f9fb 583d
000002d0: b677 febd 60b4 1fbd bd9b 983d aa9f f3bd
000002e0: 5ed7 c6bc 4058 c9bd 94ab d2bd 29a3 293c
000002f0: 6e8a e23c 7c13 eabd adaf bbbc 9e8b acbd
00000300: 9d82 84bc cad6 32bd 5d26 a53d df0f bebc
00000310: 2574 edbc 6b44 d7bd a8ca 533d 1761 2abe
00000320: 0f4a 04be 6e6d 473d a6fe adbd 199e 2a3c
00000330: 72cb 503c d5ea 91bc 673c ae3d 4e82 47bd
00000340: 4d91 993d dba4 93bd da9a 01be 9996 c6bd
00000350: 9f4f db3c 6811 f53c 6f58 c6bc 401f 81bc
00000360: ad93 70bd c5f0 1dbb d431 023b 9ab3 bf3c
00000370: 2faa 97bd ad2b 45bd 9caf 1c3d 03bf 22bd
00000380: 5fe5 d3bd 2193 f33d a04c 923d 91b5 f83d
00000390: 21d3 893d 6700 93bd dcb8 a23d bed7 d73d
000003a0: cf3d b33d fa8a c0bd 972d babd 9e71 693c
000003b0: edc0 023e 24aa a8bd e364 1abd 1104 bbbd
000003c0: 4d12 c0bd ff63 6e3d f94b 073c 9cef 0a3d
000003d0: f141 b83d dd63 323c 0cdd e33d 5db8 73bd
000003e0: f5e4 6f3d 5669 b93c 76e0 1a3d d426 86b8
000003f0: cf3e b7bc 26e3 91bd d109 18bd c825 fc3d

parametric_part.lift_V.bias f4 [58]
0.0097983135 -0.13202773 -0.08285758 0.019768294 0.07011728 0.005669076 0.021995723 0.1037191
-0.00023062847 0.095395625 0.09443344 0.07430058 0.14939642 -0.059237085 -0.02154749 -0.053949177
0.042764384 0.017152205 -0.0035993783 0.04529026 -0.08957089 0.113623954 -0.119256735 0.06651143
0.088005565 0.028474107 0.12334339 0.12318655 0.01278712 0.10076831 -0.014414884 0.06797884
0.07683852 0.08919516 -0.086218126 0.088963605 -0.020340253 0.08490806 0.11995871 -0.021730678
-0.018420884 -0.01688272 0.06301417 0.14550948 -0.09086714 -0.09976684 -0.086218275 0.039300755
0.09164053 0.11619406 -0.013890447 0.03728158 0.04466857 -0.03522337 -0.10092782 0.04167109
-0.013021714 0.09117585
00000000: 1b89 203c 4732 07be 3cb1 a9bd 1ef1 a13c
00000010: a699 8f3d a8c3 b93b 6030 b43c ae6a d43d
00000020: dcd4 71b9 c85e c33d 5266 c13d e72a 983d
00000030: 60fb 183e 96a2 72bd 5d84 b0bc d0f9 5cbd
00000040: b529 2f3d c882 8c3c 8ce3 6bbb 4882 393d
00000050: f170 b7bd adb3 e83d e03c f4bd 2537 883d
00000060: 433c b43d 8842 e93c 769b fc3d 3b49 fc3d
00000070: 1281 513c 9e5f ce3d 682c 6cbc 7d38 8b3d
00000080: 845d 9d3d f4ab b63d 2193 b0bd 8d32 b63d
00000090: 9aa0 a6bc 47e4 ad3d eaac f53d 8904 b2bc
000000a0: 65e7 96bc a14d 8abc 930d 813d 7000 153e
000000b0: 8d18 babd 8f52 ccbd 3593 b0bd d4f9 203d
000000c0: 08ae bb3d 27f7 ed3d c294 63bc 92b4 183d
000000d0: 64f6 363d 6146 10bd 3fb3 cebd 4eaf 2a3d
000000e0: 0759 55bc 67ba ba3d

parametric_part.lift_H.weight f4 [58, 58]
0.020456558 0.09118363 0.25098002 0.026616981 -0.008525472 0.043424394 -0.072315685 0.031374868
0.20824069 0.024452986 0.125603 -0.16884951 0.02078016 -0.020025872 -0.029611584 -0.13377164
0.22827768 -0.034523793 -0.047797356 0.008601485 0.044958133 -0.13985382 -0.13447306 0.027621659
0.07038747 0.17626813 -0.1758957 -0.2021438 0.039281063 0.019051684 -0.05071737 -0.23210643
0.037270915 0.06570356 0.106551036 -0.048165135 -0.037404303 0.001283536 0.22018073 -0.071604155
-0.0424808 0.15658467 -0.04027873 0.1596368 0.11847329 0.19619675 0.1501748 0.08101466
0.17061253 0.30910462 -0.14716595 -0.083311595 -0.1362886 0.06549704 -0.15961932 -0.032578945
-0.10622566 0.13037056 -0.15895057 -0.0244284 0.2330001 -0.034579325 -0.011817687 0.087588914
-0.1996969 -0.094133124 -0.034760933 0.052721806 0.14599173 0.008551486 0.14083157 -0.23712856
-0.034614448 0.13591062 0.0647619 0.2453123 -0.012822689 0.11502086 0.03164601 -0.14376886
0.008951917 -0.25207824 0.05260695 0.10081265 -0.02183129 -0.06934628 -0.16564146 0.09356205
-0.22091822 -0.11535555 0.03392967 -0.092774525 0.078935355 0.17365226 0.025315097 -0.050570183
0.13545145 -0.07085713 0.011096372 0.103116006 0.09775777 0.096901014 -0.115438126 0.03656616
0.020124728 0.14066863 0.2284898 0.16880204 -0.2459114 0.0055866307 -0.17921612 0.0387917
-0.084165424 0.022938622 0.14628339 -0.016449753 0.015919479 -0.2515331 -0.11389984 0.050235026
0.08680339 0.027355717 -0.0487594 -0.04946805 -0.0802725 0.11302293 -0.10194801 0.06830023
0.025346305 -0.15627642 -0.12967326 0.028735867 -0.12526661 -0.07608954 0.17148605 0.018663947
-0.077427804 -0.10105966 0.1887659 0.032857966 0.13442443 0.06358843 -0.35571218 -0.16062611
0.12985443 -0.21660535 0.087287895 -0.084196724 0.057901185 -0.037336268 -0.20262808 0.09953918
0.09525263 0.08994645 -0.2709594 -0.19807026 0.14337175 0.10536624 -0.046349116 -0.14098315
0.05403813 -0.008480146 -0.016594324 0.08971696 -0.1166492 -0.1566179 0.21892348 0.1894762
0.13836281 0.013600475 0.10515523 0.10517668 -0.065224186 0.089886986 -0.0031843248 -0.16159557
0.110481285 0.048119582 0.12671955 0.03812297 -0.0130313365 -0.014632188 -0.0034152586 0.23216625
-0.05516923 0.04179092 -0.13865644 0.067211755 0.037466504 0.07551584 0.3085847 0.048671573
-0.0862343 0.10869458 -0.087406576 -0.13624217 -0.07361501 0.1952443 -0.086392865 0.11014439
-0.2867104 -0.2693656 0.22433555 -0.1020869 0.040424258 0.23304084 0.08664108 0.0531667
-0.10330766 -0.17168829 0.11213478 -0.06478376 0.011464206 -0.017685588 -0.079253115 0.09857535
-0.15044288 -0.015730686 0.10962932 0.20970602 0.028437965 -0.0556175 0.07079043 0.15984692
0.06584443 0.010843852 0.107421525 0.22596198 0.19074789 0.0254004 -0.21601637 0.078318335
-0.10050796 0.3231816 -0.5087448 0.12441826 0.29344472 -0.10056083 -0.050134316 0.026498603
0.14881353 -0.076193415 -0.026558412 0.050428946 -0.1764549 0.19804132 0.0033355546 0.13662136
0.084018774 -0.1438343 0.015167205 -0.5488693 0.061306834 0.24662499 0.08781565 0.27442396
00000000: 8394 a73c 7cbe ba3d 7480 803e db0b da3c
00000010: 6cae 0bbc c7dd 313d 3f1a 94bd ef82 003d
00000020: 0c3d 553e a151 c83c 139e 003e e3e6 2cbe
00000030: 273b aa3c 4c0d a4bc fe93 f2bc 6ffb 08be
00000040: a0c1 693e d268 0dbd 29c7 43bd 3eed 0c3c
00000050: 0526 383d d735 0fbe 4eb3 09be d146 e23c
00000060: 4e27 903d a27f 343e 011e 34be c9fe 4ebe
00000070: 2ee5 203d 4712 9c3c 04bd 4fbd 4fad 6dbe
00000080: 63a9 183d 978f 863d 6e37 da3d ce48 45bd
00000090: 4135 19bd 523c a83a 0f77 613e 33a5 92bd
000000a0: 5900 2ebd bb57 203e 4ffb 24bd d477 233e
000000b0: 20a2 f23d cde7 483e 6cc7 193e 04eb a53d
000000c0: 0db5 2e3e f642 9e3e acb2 16be 459f aabd
000000d0: 3d8f 0bbe 5023 863d 3f73 23be 8071 05bd
000000e0: d78c d9bd dc7f 053e f0c3 22be 111e c8bc
000000f0: 9497 6e3e 0da3 0dbd f99e 41bc d161 b33d
00000100: 587d 4cbe dec8 c0bd 7b61 0ebd d2f2 573d
00000110: db7e 153e 881b 0c3c 2736 103e d4d1 72be
00000120: e1c7 0dbd 272c 0b3e e3a1 843d 2633 7b3e
00000130: 4116 52bc 0f90 eb3d 3f9f 013d 2538 13be
00000140: 10ab 123c 6610 81be 637a 573d dd76 ce3d
00000150: 89d7 b2bc 6c05 8ebd ea9d 29be 769d bf3d
00000160: 6338 62be 883f ecbd d6f9 0a3d 9200 bebd
00000170: dca8 a13d e6d1 313e 9b61 cf3c ae22 4fbd
00000180: c9b3 0a3e 8b1d 91bd 8fcd 353c 7c2e d33d
00000190: 3a35 c83d 0a74 c63d d36a ecbd 66c6 153d
000001a0: 9ddc a43c 700b 103e 3bf9 693e 71da 2c3e
000001b0: 33d0 7bbe 0e10 b73b 6e84 37be 0ce4 1e3d
000001c0: ec5e acbd c7e9 bb3c 50cb 153e a2c1 86bc
000001d0: 9169 823c f2c8 80be 5244 e9bd 3ec3 4d3d
000001e0: fac5 b13d 1919 e03c f0b7 47bd 039f 4abd
000001f0: e965 a4bd 9178 e73d 1eca d0bd fee0 8b3d
00000200: 0ea3 cf3c ed06 20be 11c9 04be 7b67 eb3c
00000210: e445 00be d5d4 9bbd 0a9a 2f3e 22e5 983c
00000220: 7892 9ebd 5ef8 cebd d94b 413e 1396 063d
00000230: 8fa6 093e a73a 823d e81f b6be 2c7b 24be
00000240: 8ff8 043e cbcd 5dbe ffc3 b23d 556f acbd
00000250: cb29 6d3d eaed 18bd bc7d 4fbe 33db cb3d
00000260: d013 c33d d835 b83d 31bb 8abe eed2 4abe
00000270: 0bd0 123e 41ca d73d 92d8 3dbd e35d 10be
00000280: 1657 5d3d 4ff0 0abc d2f0 87bc 87bd b73d
00000290: c7e5 eebd 7160 20be 7a2d 603e 0d06 423e
000002a0: fbae 0d3e 87d4 5e3c a05b d73d df66 d73d
000002b0: 4294 85bd ab16 b83d 1bb0 50bb 4f79 25be
000002c0: 0344 e23d 0a19 453d c5c2 013e d526 1c3d
000002d0: 6381 55bc d8bb 6fbc 88d2 5fbb fdbc 6d3e
000002e0: 21f9 61bd f52c 2b3d f4fb 0dbe 51a6 893d
000002f0: 7a76 193d 0ca8 9a3d d0fe 9d3e d85b 473d
00000300: 9c9b b0bd 449b de3d 3802 b3bd 1183 0bbe
00000310: 77c3 96bd 1fee 473e beee b0bd 6293 e13d
00000320: b5cb 92be 4aea 89be 38b8 653e f012 d1bd
00000330: e893 253d 42a2 6e3e e170 b13d 53c5 593d
00000340: f792 d3bd 0ecf 2fbe eba6 e53d 59ad 84bd
00000350: 5dd4 3b3c 5ee1 90bc 754f a2bd e0e1 c93d
00000360: b30d 1abe a4dd 80bc 5685 e03d 2dbd 563e
00000370: bcf6 e83c 2dcf 63bd 93fa 903d e9ae 233e
00000380: 72d9 863d 69aa 313c d1ff db3d 9462 673e
00000390: 6a53 433e 8014 d03c 6533 5dbe 5d65 a03d
000003a0: 1ed7 cdbd 0f78 a53e 193d 02bf 00cf fe3d
000003b0: 633e 963e d6f2 cdbd a459 4dbd 9913 d93c
000003c0: 9362 183e 4b0b 9cbd 0791 d9bc 958e 4e3d
000003d0: 98b0 34be 58cb 4a3e 5299 5a3b 78e6 0b3e
000003e0: 0912 ac3d 4c49 13be de7f 783c b382 0cbf
000003f0: e01c 7b3d 438b 7c3e b1d8 b33d 4c81 8c3e

parametric_part.lift_H.bias f4 [58]
-0.060149122 0.0018846734 -0.13770527 -0.18681508 -0.059450813 0.10202734 0.040390246 -0.1078254
-0.053958196 0.10985716 -0.11882556 0.21715318 0.06123602 -0.008131895 -0.115907475 0.08179695
0.06298571 0.16338673 0.2526639 0.06932894 0.120793834 -0.13177451 -0.12962854 -0.06265218
-0.2071696 -0.11857016 -0.2467863 0.008237614 -0.0988286 0.04360727 0.01569298 -0.027831722
-0.17119995 -0.07265509 0.09185209 -0.110615864 -0.045929976 0.10301323 -0.11323239 -0.08461241
0.10351856 -0.046527993 -0.086712986 0.005384217 -0.16508739 -0.055499956 -0.014734741 0.07928352
0.018963557 -0.098798886 0.060295776 0.0992161 -0.11587052 -0.02985267 0.099979445 -0.05987845
-0.11155988 0.092605814
00000000: ed5e 76bd 2507 f73a 9c02 0dbe 744c 3fbe
00000010: b282 73bd b6f3 d03d 3e70 253d 90d3 dcbd
00000020: 4503 5dbd cafc e03d d15a f3bd 675d 5e3e
00000030: 9fd2 7a3d a43b 05bc e660 edbd 2985 a73d
00000040: a7fe 803d da4e 273e 2a5d 813e 55fc 8d3d
00000050: c262 f73d e6ef 06be 58bd 04be c94f 80bd
00000060: 4524 54be e9d4 f2bd 8cb5 7cbe 0ff7 063c
00000070: a666 cabd 899d 323d 908e 803c 5aff e3bc
00000080: 0a4f 2fbe 31cc 94bd f31c bc3d 928a e2bd
00000090: 1221 3cbd 9af8 d23d 62e6 e7bd 4549 adbd
000000a0: 8a01 d43d 2394 3ebd 9496 b1bd 166e b03b
000000b0: ab0c 29be ec53 63bd fc69 71bc 665f a23d
000000c0: 7659 9b3c 1257 cabd b4f8 763d d031 cb3d
000000d0: 864d edbd 968d f4bc 06c2 cc3d 1b43 75bd
000000e0: 8279 e4bd 1ea8 bd3d

parametric_part.linears_Z.0.weight f4 [58, 58]
0.045530412 -0.019958688 0.081730306 0.08739723 -0.12725809 -0.10094382 0.084840946 -0.031477936
0.07210704 -0.00963248 0.19982283 -0.18895847 0.03891588 0.117020294 0.026020834 -0.2829058
0.17416625 0.0019505594 -0.16979524 -0.13159995 0.039155792 0.07241301 -0.052712783 0.04194143
0.09016033 -0.008268799 0.1370906 -0.032381214 0.14292684 0.10269237 0.02918972 -0.11358797
-0.06914916 -0.06415721 0.17295028 0.16474797 -0.2381076 0.2260612 -0.09186649 -0.033481248
0.12736008 -0.18709719 -0.0944492 -0.10798022 0.16500205 -0.05031926 -0.14379637 -0.1991742
-0.0783297 0.2412372 0.055990554 0.07063925 -0.08498111 -0.06770781 0.2466028 -0.002252705
0.09118808 0.20434897 0.033289354 0.13717745 0.07394716 0.0056235055 -0.1478603 -0.031699874
0.057969812 0.026714507 -0.0268339 -0.05801586 -0.073690005 -0.06811029 -0.05218508 -0.05018511
-0.2082862 0.0414011 0.090133615 -0.10425629 -0.09986522 0.012245103 -0.09631739 -0.019325713
0.19969638 -0.11081657 0.035415716 0.071186595 0.13011315 0.029762138 -0.030567681 0.017271211
-0.124399066 0.17319155 -0.05392602 0.20537539 0.12993164 -0.109048225 0.090551555 -0.01038888
0.039368384 -0.0014135252 -0.13650888 0.010676522 0.1148801 0.024248188 0.033616453 -0.06104624
0.19108574 0.08302473 -0.08001985 -0.025641078 -0.26448733 0.10791863 0.023054069 0.13297862
-0.106079124 -0.07292593 -0.10485267 0.13348667 -0.23077549 -0.07145617 0.15188834 0.1409264
0.029634112 -0.07656647 0.2212499 0.02764236 0.019026209 -0.017162984 0.06451295 -0.042049833
-0.03442102 0.06604016 0.21503024 -0.22687806 0.08240372 0.082344994 -0.09286612 -0.20648454
0.24576804 -0.014542978 -0.20204586 0.14531451 0.10983906 -0.18715608 0.26788065 -0.25273085
0.15558027 -0.026777912 0.013182456 -0.117221095 -0.017852437 -0.02092163 0.28207085 0.08681863
-0.11238846 0.16261716 0.056726135 0.1316494 0.1320167 -0.024624223 -0.028057346 -0.19514926
0.10015722 0.00415287 0.050531473 -0.20273377 -0.074892506 0.20001158 0.27607188 -0.021790994
-0.115894996 0.011067961 0.3262799 0.15769711 -0.051769476 0.15949148 0.038196627 -0.1952634
0.120322086 0.027127758 0.010116022 -0.00548084 0.20095599 -0.10274959 0.108337104 0.0055510914
0.24875142 0.026147978 0.03243981 -0.029769426 0.0068630646 -0.2790216 0.13691723 -0.049802735
-0.17901053 -0.06841518 0.13171291 0.06140548 -0.0336166 0.09324566 0.10396883 0.15204705
0.094928056 -0.2021802 0.05469221 0.17757894 -0.2072814 0.022609837 0.061987326 0.09774717
-0.042777486 0.1814317 -0.13207775 0.061609246 -0.14042443 -0.22964595 0.1749755 -0.15754691
-0.10410678 0.11721561 0.08952317 0.055486538 -0.10587985 -0.14009853 -0.14107601 0.005108088
-0.051115517 0.21791644 -0.09770466 0.058426537 0.21966773 0.11726553 -0.0468471 0.23873837
0.030642362 -0.13684604 0.025752295 -0.15535785 0.06070934 0.12079791 0.15376027 0.08378987
0.011761428 0.1436021 0.14075431 0.008408197 0.033365633 0.13484576 0.08138831 -0.030593306
0.16261426 -0.03833798 -0.07213991 0.14722714 0.12553056 -0.12278412 0.0313957 -0.24290788
00000000: 197e 3a3d 6780 a3bc 3862 a73d 52fd b23d
00000010: f24f 02be a2bb cebd 17c1 ad3d 02ef 00bd
00000020: dbac 933d 8dd1 1dbc 5b9e 4c3e 547e 41be
00000030: 4266 1f3d 56a8 ef3d a529 d53c 07d9 90be
00000040: a358 323e eaa9 ff3a cede 2dbe 23c2 06be
00000050: d361 203d 464d 943d 5ce9 57bd c7ca 2b3d
00000060: fba5 b83d db79 07bc 7a61 0c3e 2aa2 04bd
00000070: 6a5b 123e 6150 d23d 481f ef3c cfa0 e8bd
00000080: 139e 8dbd db64 83bd e119 313e b1b3 283e
00000090: 7bd2 73be 967c 673e 8024 bcbd a223 09bd
000000a0: ae6a 023e 6896 3fbe 956e c1bd bc24 ddbd
000000b0: 4cf6 283e 921b 4ebd 5b3f 13be 52f4 4bbe
000000c0: 526b a0bd e206 773e 5a56 653d 50ab 903d
000000d0: 940a aebd 64aa 8abd 7285 7c3e 1ea2 13bb
000000e0: d1c0 ba3d db40 513e 6b5a 083d 3f78 0c3e
000000f0: 9c71 973d 6245 b83b b168 17be bad7 01bd
00000100: c171 6d3d 62d8 da3c c4d2 dbbc 0aa2 6dbd
00000110: c9ea 96bd 687d 8bbd 06c0 55bd e78e 4dbd
00000120: fa48 55be 3394 293d f997 b83d 5284 d5bd
00000130: 2386 ccbd af9f 483c 0d42 c5bd f550 9ebc
00000140: 357d 4c3e ccf3 e2bd 1210 113d 47ca 913d
00000150: 623c 053e bacf f33c 1369 fabc 5b7c 8d3c
00000160: f0c4 febd 2059 313e 88e1 5cbd ed4d 523e
00000170: cd0c 053e ad54 dfbd 1873 b93d 1f36 2abc
00000180: be40 213d 0946 b9ba fcc8 0bbe 94ec 2e3c
00000190: 4246 eb3d 23a4 c63c 68b1 093d 9f0b 7abd
000001a0: fbab 433e df08 aa3d 72e1 a3bd 3d0d d2bc
000001b0: e26a 87be 7104 dd3d e3db bc3c 8c2b 083e
000001c0: 0340 d9bd 315a 95bd ffbc d6bd bbb0 083e
000001d0: 6950 6cbe 9d57 92bd 9e88 1b3e 034f 103e
000001e0: 3dc3 f23c e2ce 9cbd 558f 623e 3b72 e23c
000001f0: dadc 9b3c 6399 8cbc 5e1f 843d 723c 2cbd
00000200: 0efd 0cbd 1040 873d e330 5c3e b952 68be
00000210: 48c3 a83d 7ea4 a83d 9830 bebd af70 53be
00000220: 9eaa 7b3e ac45 6ebc 1ce5 4ebe 54cd 143e
00000230: 4df3 e03d d8a5 3fbe a727 893e f065 81be
00000240: 6f50 1f3e 5a5d dbbc 3afb 573c 9d11 f0bd
00000250: 463f 92bc d763 abbc 976b 903e f7cd b13d
00000260: ec2b e6bd 1d85 263e aa59 683d 1acf 063e
00000270: 632f 073e bdb8 c9bc 85d8 e5bc 35d5 47be
00000280: 3b1f cd3d cc14 883b 17fa 4e3d 7199 4fbe
00000290: 3e61 99bd d6cf 4c3e 4b59 8d3e 0783 b2bc
000002a0: 5b5a edbd 6556 353c 290e a73e 5a7b 213e
000002b0: 3b0c 54bd bc51 233e 1174 1c3d 21f3 47be
000002c0: 6d6b f63d 083b de3c acbd 253c 9e98 b3bb
000002d0: 68c7 4d3e 616e d2bd d8df dd3d eee5 b53b
000002e0: b1b8 7e3e 4934 d63c 9bdf 043d 03df f3bc
000002f0: 8fe3 e03b ebdb 8ebe 0834 0c3e f4fd 4bbd
00000300: 894e 37be 421d 8cbd c0df 063e 5084 7b3d
00000310: 8fb1 09bd 95f7 be3d 9ced d43d 39b2 1b3e
00000320: a469 c23d 5408 4fbe f004 603d 41d7 353e
00000330: 9341 54be 4438 b93c 6ce6 7d3d ab2f c83d
00000340: 7237 2fbd 3bc9 393e 643f 07be fa59 7c3d
00000350: 6ccb 0fbe 4f28 6bbe c72c 333e fa53 21be
00000360: ef35 d5bd bd0e f03d ec57 b73d da45 633d
00000370: 89d7 d8bd fd75 0fbe 3b76 10be bf61 a73b
00000380: 815e 51bd 7d25 5f3e 6119 c8bd aa50 6f3d
00000390: 94f0 603e e928 f03d bfe2 3fbd d577 743e
000003a0: b105 fb3c 5e21 0cbe 7af6 d23c 2116 1fbe
000003b0: 5baa 783d e564 f73d 5573 1d3e 069a ab3d
000003c0: 01b3 403c 6e0c 133e e621 103e 89c2 093c
000003d0: 67aa 083d 0215 0a3e eaae a63d d09e fabc
000003e0: 5a84 263e 4908 1dbd 17be 93bd b6c2 163e
000003f0: 158b 003e 3e76 fbbd c798 003d d8bc 78be

parametric_part.linears_Z.0.bias f4 [58]
-0.26246545 0.0058829533 -0.29940104 -0.2353451 0.20580325 0.102424584 -0.20834398 -0.016653204
0.23050964 -0.05383614 -0.22681433 -0.12080968 0.025571471 -0.22086754 0.027443428 0.32540104
0.11564291 0.10256537 0.24561705 -0.2098058 0.27000687 0.26079997 0.017901056 -0.0704222
0.044641934 0.12232834 0.011539896 0.112795286 0.024047608 0.15049382 0.06679126 0.0027645233
0.018400414 0.13104504 -0.075504415 -0.16134118 0.051621728 -0.13103849 -0.13533856 -0.10777195
0.11310035 0.0025766955 0.24911003 0.16098022 -0.19818951 0.1607795 0.018144798 -0.15020216
-0.12546034 -0.23952511 0.2159741 0.048279643 -0.10305178 -0.04016514 -0.15930024 0.032012198
0.32803497 -0.1855086
00000000: df61 86be cac5 c03b 184b 99be 4efe 70be
00000010: 16be 523e fbc3 d13d 2058 55be 4d6c 88bc
00000020: b80a 6c3e 4983 5cbd 0442 68be 116b f7bd
00000030: 437b d13c 1a2b 62be 0ad1 e03c f79a a63e
00000040: 31d6 ec3d cb0d d23d 0983 7b3e 55d7 56be
00000050: 573e 8a3e 9387 853e 3ca5 923c 8439 90bd
00000060: 76da 363d 4887 fa3d d511 3d3c 3701 e73d
00000070: 7dff c43c 0d1b 1a3e dbc9 883d 012d 353b
00000080: 77bc 963c ac30 063e 0fa2 9abd 9f36 25be
00000090: 4e71 533d f42e 06be 3196 0abe 8ab7 dcbd
000000a0: 28a1 e73d c7dd 283b b316 7f3e 00d8 243e
000000b0: 31f2 4abe 62a3 243e 66a4 943c 98ce 19be
000000c0: ad78 00be 1246 75be 5128 5d3e e0c0 453d
000000d0: d00c d3bd 3484 24bd 9a1f 23be 391f 033d
000000e0: 33f4 a73e f7f5 3dbe

parametric_part.linears_Z.1.weight f4 [58, 58]
-0.24232253 -0.14710481 -0.09939229 0.049128957 -0.024653533 0.15445955 0.24304889 -0.1601993
0.15790948 -0.012757371 -0.20432994 0.07473162 -0.15043536 0.107352875 -0.12576608 -0.22743428
-0.2754155 -0.14861195 -0.008072202 -0.1294443 0.21376872 0.017408071 -0.19218293 -0.35005897
-0.2290651 0.06717386 0.011839723 0.015115209 0.27600166 -0.21410719 0.02886723 -0.13497654
-0.030804636 -0.027841205 -0.24095803 0.36324185 0.13975109 -0.2649207 0.23816994 0.18783127
-0.10051081 -0.08656348 0.033030074 0.021558985 -0.13513324 0.19052191 0.0031662965 0.05519134
-0.18333688 -0.015683094 -0.088945456 0.022854758 -0.0969668 -0.037492443 0.13260356 0.04795431
-0.0057144538 0.13071573 -0.20458014 -0.24873325 0.062279787 0.08868654 -0.2152176 -0.16647613
0.13271755 -0.17171057 -0.14648552 -0.013230481 -0.09521554 0.018272717 -0.002988746 -0.090961345
-0.1883716 -0.13809945 -0.14481705 -0.16116454 -0.09496284 0.008832366 -0.18928319 0.142167
-0.17075506 -0.35035232 -0.014820605 -0.025010156 0.08748059 -0.123973496 -0.014072782 0.22874741
0.0035603188 0.021839106 0.107000925 -0.047369387 -0.010643784 0.14834654 0.20833102 -0.16149594
0.105908826 0.05075503 0.11858579 0.030255135 0.09829846 0.13448629 -0.14637956 0.08703675
0.035640847 0.10513265 -0.45862064 0.023099817 -0.0087149935 0.017613228 0.09497597 -0.13335223
0.27154723 0.11434173 -0.084850304 0.021842994 0.14987929 0.06479248 -0.13973807 -0.14183342
0.09208572 -0.24492432 0.08597222 0.16801204 -0.19590613 -0.20585753 -0.038961634 -0.06918337
0.109138936 0.053848382 -0.08174418 0.14035667 0.23586181 -0.18451045 -0.100842394 0.11130226
-0.0361608 -0.14434047 0.024818057 0.21026036 -0.0138786975 0.27364156 -0.14389172 -0.11812495
-0.44027716 0.05725084 0.058918204 0.1055824 0.013624816 -0.0014124231 -0.087919675 -0.112130776
-0.20926286 0.16406812 -0.3348253 -0.19525571 -0.042837217 0.08917116 0.16369577 -0.12201217
0.31723437 -0.20636435 0.031145636 -0.1343228 0.13177256 0.16843374 0.11216074 -0.23024051
0.017535266 -0.10752844 -0.053661417 0.09507388 0.04796872 -0.11714955 -0.077150345 -0.03211647
-0.026949937 -0.22862518 0.018157275 -0.12973838 0.0053385836 -0.24612209 0.2055928 -0.0071485974
-0.1328462 -0.09605178 0.13476497 0.08991291 -0.08918704 -0.14946662 -0.1046356 0.031610873
-0.0162455 0.2815179 -0.12940714 0.022212015 0.15704583 -0.22194378 0.025251722 -0.18988171
-0.014014115 0.046857584 -0.23294894 0.17491618 -0.017032629 0.23486198 0.204153 -0.064084046
0.11430487 0.017359477 0.0030136376 -0.0274779 -0.1475968 -0.20241873 0.12563787 0.048809554
0.059501465 0.04675239 0.26851773 -0.02493043 0.12947358 -0.27230856 -0.044066723 -0.04348791
0.16200434 -0.19719176 -0.12413823 0.13162898 0.17697817 -0.13285963 -0.1900482 -0.12155267
0.23598117 -0.05892145 -0.037111327 0.10246456 0.0106895035 -0.18604842 -0.0067910333 -0.018141463
0.029529555 -0.016971633 0.030836698 -0.26614103 -0.13146152 -0.1669772 -0.07474197 0.04704223
-0.024277598 -0.057350468 -0.13202518 0.084831186 -0.060676463 0.032551106 -0.042809468 -0.14808361
00000000: 6623 78be a5a2 16be 2f8e cbbd 723b 493d
00000010: 35f6 c9bc a52a 1e3e cfe1 783e 490b 24be
00000020: 06b3 213e 4b04 51bc de3b 51be e40c 993d
00000030: ba0b 1abe d3db db3d d3c8 00be 88e4 68be
00000040: 4303 8dbe bb2d 18be 4541 04bc 0c8d 04be
00000050: 30e6 5a3e 5f9b 8e3c 9acb 44be ee3a b3be
00000060: 0b90 6abe 7392 893d 66fb 413c c8a5 773c
00000070: 1750 8d3e ea3e 5bbe f87a ec3c 4a37 0abe
00000080: 015a fcbc 3d13 e4bc b4bd 76be d6fa b93e
00000090: e91a 0f3e b0a3 87be d2e2 733e d756 403e
000000a0: 9dd8 cdbd 3248 b1bd 8b4a 073d 789c b03c
000000b0: 5e60 0abe 2d18 433e a481 4f3b 5110 623d
000000c0: aabc 3bbe d579 80bc 0929 b6bd e739 bb3c
000000d0: 8896 c6bd ad91 19bd 3ac9 073e bd6b 443d
000000e0: 5040 bbbb 58da 053e 757d 51be eeb3 7ebe
000000f0: 1719 7f3d 4aa1 b53d 0162 5cbe b878 2abe
00000100: 1ce7 073e e5d4 2fbe 4d00 16be a9c4 58bc
00000110: 5d00 c3bd aab0 953c d6de 43bb f149 babd
00000120: 7ce4 40be f169 0dbe ec4a 14be 5108 25be
00000130: e17b c2bd a1b5 103c 74d3 41be 3a94 113e
00000140: 6ada 2ebe 6161 b3be 1fd2 72bc 19e2 ccbc
00000150: 0629 b33d d1e5 fdbd 8791 66bc c33c 6a3e
00000160: 3d54 693b ede7 b23c 4d23 db3d 6706 42bd
00000170: 4463 2ebc 28e8 173e ba54 553e 315f 25be
00000180: bae6 d83d 82e4 4f3d 1bdd f23d 9ed9 f73c
00000190: b450 c93d c6b6 093e 86e4 15be 5340 b23d
000001a0: 23fc 113d c94f d73d 53d0 eabe d43b bd3c
000001b0: 55c9 0ebc 9e49 903c c382 c23d 7d8d 08be
000001c0: 3d08 8b3e ff2b ea3d ffc5 adbd 14f0 b23c
000001d0: f579 193e ebb1 843d 7f17 0fbe c83c 11be
000001e0: 7097 bc3d 71cd 7abe 3412 b03d 590b 2c3e
000001f0: 9e9b 48be 51cc 52be 3c96 1fbd 03b0 8dbd
00000200: 3c84 df3d 1f90 5c3d 7e69 a7bd a9b9 0f3e
00000210: c285 713e 4ff0 3cbe 7586 cebd 70f2 e33d
00000220: 591d 14bd fdcd 13be 3d4f cb3c 7e4e 573e
00000230: 7a63 63bc bf1a 8c3e 5a58 13be 7eeb f1bd
00000240: 026c e1be db7f 6a3d 3754 713d 963b d83d
00000250: 9f3a 5f3c 0e21 b9ba 3b0f b4bd d2a4 e5bd
00000260: 0149 56be 7901 283e 396e abbe 1df1 47be
00000270: 1476 2fbd 5e9f b63d dd9f 273e 84e1 f9bd
00000280: 8b6c a23e 2d51 53be 2225 ff3c eb8b 09be
00000290: 63ef 063e e579 2c3e 88b4 e53d 2bc4 6bbe
000002a0: 1ea6 8f3c df37 dcbd 13cc 5bbd 18b6 c23d
000002b0: d97a 443d 1aec efbd 0001 9ebd 8f8c 03bd
000002c0: 1dc6 dcbc b81c 6abe 91be 943c 23da 04be
000002d0: 49ef ae3b 6e07 7cbe eb86 523e c83e eabb
000002e0: d608 08be ccb6 c4bd d4ff 093e 4224 b83d
000002f0: b2a7 b6bd c70d 19be 304b d6bd 677a 013d
00000300: 4815 85bc 1d23 903e 4e83 04be f9f5 b53c
00000310: 9fd0 203e 3b45 63be b3dc ce3c 5a70 42be
00000320: 759b 65bc bded 3f3d 2b8a 6ebe 3a1d 333e
00000330: 0388 8bbc a97f 703e 7c0d 513e 7f3e 83bd
00000340: ac18 ea3d 7635 8e3c 7380 453b 5519 e1bc
00000350: 9e23 17be db46 4fbe 37a7 003e 87ec 473d
00000360: cfb7 733d 6f7f 3f3d 287b 893e e73a ccbc
00000370: b994 043e 076c 8bbe 4f7f 34bd 6120 32bd
00000380: 77e4 253e a3ec 49be 2f3c febd bfc9 063e
00000390: c439 353e 5b0c 08be ff9b 42be 9bf0 f8bd
000003a0: 0ca5 713e 9e57 71bd 0c02 18bd f0d8 d13d
000003b0: 0723 2f3c 7a83 3ebe 5187 debb 689d 94bc
000003c0: f7e7 f13c 1808 8bbc 3e9d fc3c a343 88be
000003d0: d99d 06be 12fc 2abe 5112 99bd 5aaf 403d
000003e0: d0e1 c6bc 53e8 6abd 9c31 07be f9bb ad3d
000003f0: e287 78bd 4f54 053d fb58 2fbd 3ba3 17be

parametric_part.linears_Z.1.bias f4 [58]
-0.033948626 0.01129098 -0.21131377 -0.046085846 0.08663408 -0.0904375 -0.16151595 -0.14055577
-0.037393834 0.2542157 0.1255519 -0.10136398 0.002153236 -0.07628005 -0.24199164 -0.15256846
0.15475315 0.10605403 0.08100833 0.13565819 0.122642994 -0.23709929 -0.020951433 0.08661257
-0.23013215 0.083953574 -0.18406394 0.09739804 -0.026100246 0.031102356 -0.24486685 0.23087269
0.15807569 -0.1334616 -0.14744253 -0.09465741 -0.2606056 -0.2883687 0.063242175 0.069570914
-0.075304545 0.17225559 -0.080636434 -0.23502608 -0.011338348 0.10539179 -0.15467192 -0.13597873
-0.14196807 0.027719555 0.13803202 -0.34843364 0.06913458 -0.26790094 0.11765011 -0.01266491
-0.094810694 -0.17604797
00000000: b70d 0bbd cdfd 383c a362 58be 83c4 3cbd
00000010: 356d b13d 4c37 b9bd 7064 25be daed 0fbe
00000020: 472a 19bd 8f28 823e ad90 003e eb97 cfbd
00000030: 4e1d 0d3b b738 9cbd a8cc 77be e83a 1cbe
00000040: 9c77 1e3e db32 d93d b2e7 a53d fbe9 0a3e
00000050: 402c fb3d 28ca 72be 57a2 abbc ee61 b13d
00000060: c3a7 6bbe daef ab3d 427b 3cbe a078 c73d
00000070: 2fd0 d5bc 5eca fe3c 60be 7abe e469 6c3e
00000080: 98de 213e 28aa 08be 2dfb 16be bfdb c1bd
00000090: 196e 85be 10a5 93be 1d85 813d 327b 8e3d
000000a0: 4539 9abd c563 303e b724 a5bd adaa 70be
000000b0: 7ac4 39bc a7d7 d73d 5162 1ebe 023e 0bbe
000000c0: 1460 11be 1f14 e33c 4458 0d3e e565 b2be
000000d0: 6e96 8d3d 502a 89be 8af2 f03d 7c80 4fbc
000000e0: 1c2c c2bd eb45 34be

parametric_part.linears_Z.2.weight f4 [58, 58]
0.051256932 -0.1348931 0.053613782 0.07049527 -0.037978977 -0.34393787 0.043957002 0.11016009
0.050041046 0.1763333 0.061532274 0.27491605 -0.09294926 -0.21684498 -0.10324593 0.039409112
0.17914407 -0.057440177 -0.12115663 0.21922274 -0.13528365 0.13770516 0.14743064 -0.34956247
0.12774591 -0.12984614 -0.053963326 0.17940482 -0.11331953 0.18495585 0.021258539 0.033004303
0.28977302 -0.0049191997 -0.08455618 0.06403197 0.12593497 -0.026308047 0.19031996 -0.016148847
-0.12374656 0.16748828 0.010612919 0.007201419 0.07844887 -0.16167958 -0.22185723 0.21440637
0.06261651 -0.007799296 -0.03664138 0.031915907 0.17210886 -0.1949522 -0.059602294 -0.055125196
-0.1291956 -0.15312575 0.5512577 0.096523814 0.105247244 -0.100536175 -0.082909495 -0.03342509
-0.2626622 -0.3145563 0.089190155 -0.044484675 0.22575165 0.56152356 -0.067128785 0.011285827
-0.062472496 0.15473019 0.05124568 0.00772474 0.13168123 -0.38689047 -0.03724548 0.120444864
0.43835515 -0.14263247 0.3228774 0.16290866 -0.07211514 -0.30719432 -0.1773134 -0.10890348
0.023054585 -0.15752767 -0.15934561 -0.15226561 0.22088169 -0.010932972 -0.1621268 0.37834215
-0.21896513 -0.2262693 0.49931586 0.00040309492 -0.13568763 0.04422636 -0.0240134 -0.23146625
0.3018457 0.083583675 -0.05432225 0.13550226 0.21156757 -0.029958548 0.09700699 -0.009593235
0.16836004 -0.11075917 0.13835688 0.16339663 -0.06360222 -0.17817898 -0.10101077 0.14519662
0.18475036 -0.08715128 0.06723313 -0.109827116 -0.04918034 -0.10690742 0.021652896 -0.027237847
0.16025387 0.16462368 0.006664049 0.20633991 0.22440135 -0.017370656 -0.086085215 0.022933533
-0.16084006 -0.18138103 -0.04369514 0.103092246 -0.1756186 -0.10100831 0.0431458 0.08224105
-0.03320955 0.15584126 -0.14488512 -0.21281682 -0.039434582 -0.11721257 -0.19869877 -0.07033597
0.20507132 -0.05935077 0.08925964 -0.050049532 -0.17963319 0.09021305 -0.0027098237 -0.019082913
-0.23393172 0.009251894 -0.10260977 0.05806318 -0.14990012 -0.04664717 0.13755886 0.21842186
0.008170566 -0.27264822 -0.107278764 0.029388769 -0.038378414 0.072108015 -0.08394599 0.16180724
-0.16012056 0.12733427 0.2280872 -0.11436776 0.053826533 -0.038557224 -0.035524134 0.21807402
-0.06131924 0.049526207 -0.100492045 0.10993046 0.09664188 0.33533284 -0.089121774 -0.09553114
-0.15305795 0.042459 -0.18468137 -0.1324792 -0.024453558 -0.003889709 0.07791986 0.047481403
-0.15705472 0.09466813 -0.09232944 0.1480546 0.057542905 0.16816367 0.104319066 -0.10130758
-0.056405116 0.1825845 -0.02423354 -0.07954893 0.090743095 0.109707475 -0.0012862444 0.104775816
0.030972622 -0.042723138 0.26140955 -0.07496284 -0.05639556 0.04044229 -0.008117107 0.085218735
-0.012948416 -0.122634254 -0.035605874 0.11092554 0.055650268 -0.047258668 -0.008421043 -0.114170164
-0.08128733 -0.067277 0.09041002 0.06461514 0.051425256 0.04999513 0.08252736 0.12508102
-0.0063272095 -0.057143386 0.06894606 0.052311834 0.15134284 0.15699433 0.17587118 0.40146375
0.060294595 -0.09049062 0.16658051 0.0035935948 -0.19333509 0.0339873 -0.013839216 0.11619068
00000000: caf2 513d 6b21 0abe 209a 5b3d d35f 903d
00000010: d88f 1bbd a018 b0be 420c 343d 9d9b e13d
00000020: d7f7 4c3d b790 343e 4409 7c3d ccc1 8c3e
00000030: 2e5c bebd 9c0c 5ebe 9a72 d3bd 736b 213d
00000040: 8b71 373e 6446 6bbd f820 f8bd ed7b 603e
00000050: cc87 0abe 9502 0d3e 0ff8 163e daf9 b2be
00000060: d3cf 023e 63f6 04be a608 5dbd e6b5 373e
00000070: 1214 e8bd 1165 3d3e 6326 ae3c 852f 073d
00000080: 215d 943e 3d31 a1bb ca2b adbd 3223 833d
00000090: 19f5 003e f983 d7bc 3ce3 423e 964a 84bc
000000a0: d66e fdbd 0c82 2b3e cfe1 2d3c e2f9 eb3b
000000b0: cda9 a03d 558f 25be 8b2e 63be 588d 5b3e
000000c0: 163d 803d 3d91 ffbb 4615 16bd 41ba 023d
000000d0: 4e3d 303e 8da1 47be 8921 74bd f5ca 61bd
000000e0: da4b 04be ffcc 1cbe 3a1f 0d3f 47ae c53d
000000f0: de8b d73d e9e5 cdbd 74cc a9bd bfe8 08bd
00000100: a97b 86be 860d a1be 54a9 b63d 9035 36bd
00000110: 712b 673e 02c0 0f3f d17a 89bd 30e8 383c
00000120: 29e3 7fbd 9771 1e3e fde6 513d d11f fd3b
00000130: 72d7 063e 8216 c6be b78e 18bd ccab f63d
00000140: 1670 e03e 3f0e 12be 3050 a53e 87d1 263e
00000150: 1ab1 93bd 9348 9dbe a591 35be ca08 dfbd
00000160: f8dc bc3c ef4e 21be 7f2b 23be 84eb 1bbe
00000170: cf2e 623e 3520 33bc 9104 26be 10b6 c13e
00000180: 6538 60be 24b3 67be 54a6 ff3e 7c56 d339
00000190: b3f1 0abe b326 353d c0b7 c4bc 7d05 6dbe
000001a0: 858b 9a3e eb2d ab3d 0281 5ebd 1bc1 0a3e
000001b0: 2ba5 583e a16b f5bc 9aab c63d f22c 1dbc
000001c0: 9366 2c3e b4d5 e2bd 6dad 0d3e 7251 273e
000001d0: e141 82bd 8d74 36be bcde cebd 6cae 143e
000001e0: 332f 3d3e 5f7c b2bd 86b1 893d 0aed e0bd
000001f0: 5371 49bd 47f2 dabd 6a61 b13c e821 dfbc
00000200: 9719 243e 1c93 283e 185e da3b c54a 533e
00000210: 78c9 653e e84c 8ebc 724d b0bd 1bdf bb3c
00000220: 42b3 24be f3bb 39be adf9 32bd 0722 d33d
00000230: 5dd5 33be 72dd cebd a6b9 303d ff6d a83d
00000240: bd06 08bd da94 1f3e c45c 14be a7ec 59be
00000250: 2886 21bd 250d f0bd b177 4bbe 4e0c 90bd
00000260: 37fe 513e cb19 73bd c2cd b63d bd00 4dbd
00000270: c3f1 37be 9fc1 b83d 4c97 31bb c553 9cbc
00000280: cc8b 6fbe 4295 173c 1225 d2bd a8d3 6d3d
00000290: 6b7f 19be 1a11 3fbd 3bdc 0c3e fba9 5f3e
000002a0: d6dd 053c 8c98 8bbe f8b4 dbbd b7c0 f03c
000002b0: af32 1dbd 5ead 933d e0eb abbd ccb0 253e
000002c0: a5f6 23be ea63 023e b18f 693e a539 eabd
000002d0: 3679 5c3d 2eee 1dbd c181 11bd cc4e 5f3e
000002e0: e229 7bbd fedb 4a3d c6ce cdbd 3923 e13d
000002f0: 2eec c53d bfb0 ab3e 7a85 b6bd d5a5 c3bd
00000300: 39bb 1cbe 7de9 2d3d 1d1d 3dbe a1a8 07be
00000310: d452 c8bc 7dea 7ebb 7394 9f3d dc7b 423d
00000320: f4d2 20be 5de1 c13d 3817 bdbd a09b 173e
00000330: 1cb2 6b3d 1933 2c3e 3ca5 d53d 597a cfbd
00000340: 0d09 67bd 6ef7 3a3e 6b85 c6bc 8dea a2bd
00000350: 84d7 b93d 50ae e03d 3397 a8ba b494 d63d
00000360: 4cba fd3c 75fe 2ebd 79d7 853e 1e86 99bd
00000370: 08ff 66bd d1a6 253d 9dfd 04bc 2987 ae3d
00000380: 9825 54bc ab27 fbbd 77d7 11bd ee2c e33d
00000390: 89f1 633d 4e92 41bd 6af8 09bc 0cd2 e9bd
000003a0: f979 a6bd 86c8 89bd e328 b93d f154 843d
000003b0: 4aa3 523d b2c7 4c3d 1b04 a93d 3d15 003e
000003c0: 7b54 cfbb 2f0f 6abd 9833 8d3d ef44 563d
000003d0: 9ef9 1a3e 1fc3 203e 9317 343e a88c cd3e
000003e0: 77f7 763d 2553 b9bd 1594 2a3e 8482 6b3b
000003f0: a2f9 45be 4436 0b3d e1bd 62bc 61f5 ed3d
