ContinuousNetworkTheta/TrainedModels/noBcsTrainedModel.pt (torch, 999970 bytes, 59 tensors)

parametric_part.embed.weight f4 [93, 3]
000000 1f af 86 3e ef af 61 be bb de 10 be 01 b7 90 3e
       0.26305482 -0.2203977 -0.14147465 0.2826462
000010 44 21 0e bf f0 25 bc 3e 9b 07 fb bd 8e 54 98 3e
       -0.5551951 0.36747694 -0.1225731 0.2975201
000020 27 d1 21 3d 89 5c 46 bd 9f 2d 0d 3e 6a cb 42 3d
       0.039506104 -0.048428092 0.13786934 0.047557272
000030 38 27 4d 3e 27 9f 5b be c6 51 82 bd 08 b5 5d bd
       0.20034492 -0.2144743 -0.06363253 -0.054127723
000040 ac c9 af 3d 61 a9 ef 3c 4a bd 05 3f 5d d5 25 3e
       0.08583388 0.02925557 0.5224196 0.16194673
000050 2b c1 59 be 8c 0b b2 be 69 24 c8 bd 22 61 85 be
       -0.21265094 -0.34774435 -0.0977257 -0.2605067
000060 79 92 47 be 0e b7 19 3d 45 34 b8 3e a7 80 be 3e
       -0.19489469 0.03752809 0.35977378 0.3720753
000070 46 66 1f bf 08 eb d3 3e bb 62 3f 3e 5c a4 05 3f
       -0.6226543 0.41390252 0.18690006 0.5220392
000080 ec d4 b5 3e 2e a8 f5 be e5 5e 18 bf 03 0e 59 be
       0.3551401 -0.47979873 -0.595198 -0.21196751
000090 98 ac 02 3f 27 0e cc bd 88 08 85 3e 39 b5 68 be
       0.5104461 -0.09963637 0.2598307 -0.22725381
0000a0 86 84 06 3f 76 50 7f be e9 ba c5 3e 09 9b 5b 3d
       0.52545965 -0.24933037 0.38619164 0.05361465
0000b0 19 90 a1 be ef 4e 9c 3e aa 46 a1 be 60 03 46 3e
       -0.3155525 0.30528972 -0.31499225 0.19337225
0000c0 c1 e6 5f be a0 15 3a bc b3 51 16 bf 02 6e 88 be
       -0.2186537 -0.011357695 -0.58718413 -0.2664643
0000d0 58 e5 9b 3e a7 98 09 be 02 bf 0c 3f 48 e5 f9 3e
       0.30448413 -0.13437138 0.54978955 0.4880774
0000e0 75 16 f5 bc 8c bd c8 be 02 71 b7 3e 10 1f 37 3e
       -0.029917935 -0.39207113 0.35828406 0.17882943
0000f0 97 d8 d1 be 10 c5 d2 3e 64 01 ac 3e 39 18 07 3f
       -0.40985557 0.41165972 0.3359481 0.52771336
000100 28 b9 ad be 48 0e e2 bd 6e 70 2c bd a2 03 ec 3d
       -0.33930326 -0.1103788 -0.04209941 0.115241304
000110 c6 b2 e3 be ab 9f cc be a1 aa 9b 3e 49 42 23 be
       -0.4447233 -0.39965567 0.30403617 -0.15943255
000120 d1 4d 8d 3e fd 89 1f 3d f4 1b 4b 3e 20 ae fd 3d
       0.27598432 0.038949955 0.19834882 0.12386727
000130 23 1f 5a 3e d6 63 82 3e 5d 88 06 bf 6b 18 90 3e
       0.2130094 0.25466794 -0.52551824 0.2814363
000140 df ee d8 be 1b 8e d6 be bd f1 97 3c eb b3 c8 bd
       -0.42369744 -0.41905293 0.018547887 -0.09799942
000150 1c a6 b1 3e 75 3a af be 24 ae 0c bf 7c fd ca 3e
       0.34697044 -0.34224287 -0.5495322 0.39646518
000160 d0 88 7d bd b9 72 90 3e f4 a5 10 3e 4e f5 c6 be
       -0.061898053 0.28212526 0.14125806 -0.38859028
000170 22 a6 85 3d e8 cc fd 3d ea 5e be be a6 34 95 be
       0.06525828 0.123925984 -0.3718179 -0.2914173
000180 e3 6e 66 3e dd 1a 9a 3d 22 aa 5c be 8b 08 11 be
       0.22503237 0.07524655 -0.21549276 -0.14163415
000190 58 c5 fd 3e 68 0d 05 be f5 80 c3 3e a0 4d 46 3e
       0.49564624 -0.12993395 0.38184324 0.19365549
0001a0 16 15 b2 be b9 33 11 bf 5b 61 21 3f 98 73 92 3d
       -0.34781712 -0.5671955 0.6303918 0.07150954
0001b0 d5 41 c4 3e f4 3f 07 3e 55 8b 29 3e 68 60 c6 3e
       0.38331476 0.1320799 0.16557057 0.38745427
0001c0 8b 5c 17 3f 6d dc b1 be dd c8 78 3d 0a 75 e2 3e
       0.59125584 -0.34738484 0.060738433 0.4422992
0001d0 6e 73 db 3e d7 98 e2 3e f0 71 00 bf e4 04 c1 be
       0.42861503 0.44257233 -0.50173855 -0.37699044
0001e0 b2 a3 9c be 19 0e f0 3c 8b 4a 15 3f f2 75 aa be
       -0.3059364 0.029303597 0.5831687 -0.3329311
0001f0 b6 41 8d 3e 49 3c 92 be b6 f6 0a bf 8c 52 fb bd
       0.27589196 -0.2856162 -0.542827 -0.12271604
000200 62 b6 b9 3e 55 ed 15 3f 30 01 d1 be f9 90 df 3d
       0.3627196 0.58565265 -0.40821218 0.10916323
000210 93 c3 0d 3f 62 6b a7 3e fe c5 af 3e a1 62 bf 3e
       0.5537655 0.32699114 0.34330744 0.37379935
000220 6f a7 cd 3e 6f 4d f2 3d af 17 b6 be 1b 24 06 bf
       0.40166804 0.118311755 -0.35564944 -0.5239884
000230 04 29 95 be 69 56 27 bd ed b1 c2 be 6c 23 6f 3e
       -0.29132855 -0.04085389 -0.38026372 0.23353356
000240 81 5d 55 3e 98 43 24 be 76 b3 81 3e 8c a2 1e 3e
       0.2083645 -0.1604141 0.2533223 0.15491694
000250 cf b1 c4 3e 19 5b be 3e 79 9e 7f be d1 41 1e 3f
       0.38416907 0.37178877 -0.24962796 0.6181918
000260 22 3d da bd 78 6b 20 bd f6 8e 06 bf 7d 0d b1 be
       -0.106561914 -0.03916499 -0.5256189 -0.34580603
000270 29 70 d0 be 8d 61 35 be ec 00 c9 3e ca dc 3f be
       -0.4071057 -0.17712994 0.39258516 -0.18736568
000280 94 90 dd be 2e f9 4a 3e ae a5 6a 3e 8e c7 a8 3e
       -0.43274367 0.19821617 0.22914764 0.32964748
000290 e3 1f 98 be 9c a0 f4 3d 4e 5c 51 be 36 73 14 be
       -0.29711828 0.11944696 -0.20445368 -0.14497074
0002a0 17 9e de be bc ad 93 be 1d 06 19 be b3 2d 57 3e
       -0.43479988 -0.28843486 -0.14943738 0.21013527
0002b0 49 a6 11 3e a6 02 05 3e d3 f7 23 3f d1 35 ff 3e
       0.14223589 0.12989292 0.64050025 0.49845746
0002c0 d3 33 bc 3e fd 80 2a 3d 48 65 d8 be 3b 68 e8 3e
       0.3675829 0.04162692 -0.4226477 0.45392022
0002d0 14 18 2b be 30 55 c4 bc 3d af f2 be 4f 1e c5 bd
       -0.16708404 -0.023966402 -0.4739932 -0.096249215
0002e0 6b c5 c7 be 5e 7f 07 3f 9b 6d 00 bf f9 1d e5 be
       -0.39017805 0.5292872 -0.50167245 -0.4474943
0002f0 f0 c7 11 bd 4e 4e 9f be 83 7a 52 3e 11 71 8d be
       -0.035591066 -0.3111443 0.20554547 -0.27625325
000300 af 00 89 be 7d 76 ee 3c f1 30 ca 3e c5 2b cf be
       -0.26758334 0.029109234 0.39490464 -0.4046308
000310 c3 0d 8a 3e 08 fb c7 3e 38 69 22 3f e8 90 f2 be
       0.26963624 0.3905871 0.634418 -0.4737618
000320 49 6f ee 3d 6d ef 06 bf 10 d5 17 3f bf d9 98 be
       0.1164232 -0.52709085 0.5930948 -0.29853627
000330 92 4d b4 3e 79 c3 51 3c f6 ef 98 bd 1f 4d 8c bd
       0.3521543 0.012802952 -0.07467644 -0.06850647
000340 c1 c9 17 3e b6 51 79 3e 53 99 ef 3d 76 5e 1b 3e
       0.14823057 0.24347576 0.11699166 0.15172753
000350 73 3c 05 bf 18 75 cc 3e 3f 50 06 3f d6 32 fc 3e
       -0.52045363 0.39933085 0.52466196 0.49257535
000360 f4 71 f3 3e bf 3e ee be f5 43 74 be 6a e5 0d 3f
       0.47547877 -0.46532246 -0.23854049 0.55428183
000370 f1 4c f8 be fc c6 ff 3e 8c cd f8 be d7 e9 bf be
       -0.48496202 0.499565 -0.4859432 -0.37483093
000380 d7 ca 84 3e 20 ac d3 be b3 e0 08 be 55 51 df 3e
       0.25936005 -0.41342258 -0.13366966 0.4361674
000390 f0 8a d2 3e cb 95 17 3f 87 3f 0d be 3f 7a f2 be
       0.41121626 0.5921294 -0.13793765 -0.4735889
0003a0 a9 e2 17 3f 0d 75 22 be 0c c9 87 be 8d 72 2c 3e
       0.5933023 -0.15864964 -0.26520574 0.16840573
0003b0 15 a5 de be da cd e3 3e 20 c1 97 3e 7c cb e8 be
       -0.43485323 0.4449299 0.2963953 -0.45467746
0003c0 1c de fd be 7c 39 ed bc 31 e6 87 3e cd 8a f4 3c
       -0.49583519 -0.028958075 0.2654281 0.029851342
0003d0 2b bd ad be e9 bd 97 3d 1e c3 0d bf 47 3e cb be
       -0.33933386 0.07409269 -0.5537585 -0.3969595
0003e0 aa d7 b5 be cf e3 f8 3e e6 1f ff 3e a2 6d 46 be
       -0.355161 0.48611304 0.49829024 -0.19377759
0003f0 ef a0 60 3d 15 06 6a 3e c9 a9 da 3d ae 2f 8d be
       0.05484098 0.22853883 0.10676915 -0.2757544

parametric_part.embed.bias f4 [93]
000000 e4 73 cb 3c 35 5b d3 bd 93 03 36 3e c7 f5 ff 3e
       0.024835534 -0.10320131 0.17774801 0.499922
000010 84 d4 07 3e 0b 93 2f be ea 95 8a be aa 1d f1 be
       0.13264662 -0.17145936 -0.270675 -0.47092944
000020 72 db 04 3f d9 e5 8c bb 0f 24 f1 3d b3 ea 9f 3d
       0.51897347 -0.004299861 0.11774456 0.07808437
000030 69 83 b8 be be 38 ae 3e d0 b0 8b 3e 2f e5 71 3d
       -0.36037758 0.34027666 0.27283335 0.059056457
000040 c4 af a8 be 65 6a 78 be cb e1 7b 3b 8d 9b c6 be
       -0.329466 -0.24259336 0.0038434144 -0.3879055
000050 f2 f1 a7 be 52 0a bb bd 60 b0 28 be 02 27 13 3e
       -0.32801777 -0.09132828 -0.16473532 0.14370349
000060 61 f8 17 be 8e f1 be bd 8c 95 51 be c7 40 06 bf
       -0.14840843 -0.09323417 -0.20467204 -0.5244259
000070 e9 9a ed 3e 0a e9 a2 3d e3 3e eb 3e 20 2d d7 bd
       0.4640725 0.07954605 0.45946416 -0.10506654
000080 cb 0f 09 be b4 43 0f bf 2e e1 45 be e1 93 bc 3e
       -0.13384931 -0.5596268 -0.1932418 0.36831573
000090 ef d0 13 bf 5c 10 32 be 97 49 b9 3e c4 30 b6 3e
       -0.5774068 -0.17389053 0.36188957 0.3558408
0000a0 a0 e3 66 3e f0 73 b1 bd d0 01 26 3a 40 d5 19 be
       0.2254777 -0.086646914 0.00063326675 -0.15022755
0000b0 b9 0b 73 be f6 11 65 3e eb bb 5e be f6 a2 9a be
       -0.2373494 0.22370133 -0.21751373 -0.30202454
0000c0 a7 da 22 3e 95 7b dc be 98 4f 34 be d8 f6 7f 3e
       0.15903722 -0.43063036 -0.17608488 0.24996507
0000d0 6d 2a 59 3e 22 f5 f5 3e 92 bf ce be ee 71 89 3b
       0.2120759 0.48038584 -0.40380532 0.0041944897
0000e0 4b f3 f7 bd 40 9e a6 be 85 65 ae be a8 63 f6 3d
       -0.12106951 -0.3254261 -0.34061828 0.12030727
0000f0 a6 7f 74 3d 72 f1 9d be 43 1e dd be ca ab 04 bf
       0.059692048 -0.3084827 -0.4318715 -0.5182463
000100 07 88 0d 3f 70 d8 b3 bd 53 88 1d be 55 91 41 be
       0.55285686 -0.087815166 -0.15384035 -0.18903096
000110 32 33 93 be ee 8e 0e bf 4c d4 b6 be 57 86 c0 3e
       -0.28749996 -0.55686843 -0.35708845 0.37602493
000120 84 6a c7 3d ea ce 49 be e6 a6 6b be 9a 2d cc 3e
       0.09737113 -0.19707838 -0.23012885 0.3987854
000130 4b 82 cf 3e 51 96 0c 3f 38 b4 fc 3d 72 8e 90 3e
       0.40529093 0.54916865 0.123390615 0.28233677
000140 8d a1 53 bd 03 00 97 be 23 38 0d bf 30 07 b5 3e
       -0.05166774 -0.29492196 -0.5516378 0.35357046
000150 31 98 78 bd 16 24 86 3e 9f 41 77 ba 0b f6 00 bf
       -0.060692016 0.26199406 -0.00094320806 -0.5037543
000160 a7 bc a9 be 1e 13 3d 3e 49 4d 1a be 40 06 f8 be
       -0.33151743 0.18464324 -0.15068544 -0.48442268
000170 ac 41 62 3e
       0.22095364

parametric_part.lift_U.weight f4 [93, 93]
000000 b2 08 bd 3b c5 43 21 bd 24 fe 66 3d 3d 91 f2 3c
       0.005768859 -0.03937127 0.05639471 0.02961027
000010 99 95 e5 bc 3d e5 c5 3d 26 0a 86 3d 85 a5 7f 3c
       -0.028025435 0.09662864 0.065449044 0.015603428
000020 04 3b be bc 28 43 b5 bd f0 82 e5 3d 69 c4 e4 bc
       -0.0232215 -0.088507 0.11206615 -0.027925687
000030 58 ea b8 bd 79 40 98 3d 68 22 2c 3d 0e 62 cc 3c
       -0.090290725 0.07434172 0.042025 0.0249491
000040 be 2b 73 bc ed 9b 1b bd 1f e3 d1 3a ba a3 9f 3d
       -0.014841972 -0.0379905 0.0016013122 0.077949
000050 5f 65 89 3c 62 5b 33 bd ee b9 dd 3d 69 0c b5 39
       0.01677197 -0.04378832 0.10826479 0.00034532257
000060 f5 70 91 3d d6 41 da 3c 7d aa a2 3d 14 c4 3c 3d
       0.07101623 0.026642721 0.07942674 0.046085432
000070 ac 27 62 bd 42 c0 91 3d 7c a0 eb 3b 33 b7 aa bd
       -0.055213615 0.071167484 0.007190762 -0.08335724
000080 87 4d 8d bc 87 44 c0 bd 2d b8 67 bd 64 39 8f bd
       -0.017248882 -0.093880706 -0.056572128 -0.06993368
000090 90 6d b9 3d 2a e6 50 bc 45 93 66 bc 5f 3b 46 3d
       0.090541005 -0.012750188 -0.014073198 0.048396464
0000a0 ec 69 44 3d 08 fe a2 bd fa 0d 07 3d cd a4 30 3d
       0.047952577 -0.07958609 0.032972313 0.043125916
0000b0 71 ec 95 bd e4 9b af 3d 59 88 72 bd b0 dc 33 bd
       -0.07320488 0.08574656 -0.059212063 -0.043911636
0000c0 44 90 aa bd b7 9f 98 3d bb 77 89 3c 5b 05 c6 3d
       -0.08328298 0.07452338 0.016780725 0.0966899
0000d0 c4 a7 24 3c 97 ac 5f 3d 68 fb da bc 38 2f c5 bd
       0.010049764 0.054607954 -0.026731208 -0.09628147
0000e0 91 92 6a 3c fe a5 84 3b 56 9d fb bb 56 77 82 bd
       0.014317171 0.004048108 -0.007678668 -0.06370418
0000f0 ed fc 25 ba a0 a5 ba 3c 57 95 3e 3d a3 0c a8 bd
       -0.00063319394 0.022784054 0.04652914 -0.08205535
000100 5b 3b 96 3c c3 f7 e9 3c 58 ce 8c 3d 1d c3 8f 3d
       0.01833885 0.028560525 0.068752944 0.07019637
000110 e6 88 a6 bd c9 fa c5 3d 79 33 c1 bd 46 69 6f 3d
       -0.0813158 0.09666974 -0.09433646 0.058450006
000120 53 e9 da 3b 08 06 00 3d 2d 05 73 bd a3 45 81 3d
       0.0066806464 0.03125575 -0.059331108 0.0631211
000130 57 43 5d bd 18 35 b3 bd e0 77 f4 3c 09 ea 4c 3d
       -0.0540193 -0.08750361 0.029842317 0.05002788
000140 4f 26 f7 3d 5f b5 f7 ba bc 42 ad 3d be 9b 8d 3d
       0.12067854 -0.0018898657 0.08459994 0.06914471
000150 6e 4b 60 bd bc 2f a0 bd 39 d5 7c 3d e1 b0 44 bd
       -0.054759435 -0.078216046 0.061726782 -0.048020247
000160 c8 03 66 3d 89 55 b3 bd c7 59 9d 3d 81 d0 16 3d
       0.05615595 -0.08756549 0.07683139 0.03681994
000170 c2 12 49 bc ce 23 57 3d 21 6e 8e bd db ad 13 bc
       -0.012272539 0.05252438 -0.06954599 -0.009013618
000180 aa 11 80 3c b3 77 53 bd 1f b9 c6 bc 28 d9 49 bd
       0.015633423 -0.051627826 -0.024258194 -0.049279362
000190 c2 e7 b0 3d c0 31 b1 3d 00 18 d0 3d 7f 31 14 3e
       0.08637954 0.08652067 0.10160828 0.14472006
0001a0 e2 02 b7 bd f4 b6 6e 3c 9d 5f 36 3d ae 0d 75 bd
       -0.08936097 0.014569987 0.044524778 -0.0598275
0001b0 ae 24 12 3d 29 fb 5d bd 8c 5d 9d 3c d4 4b 76 3c
       0.03567951 -0.054194603 0.019209646 0.015032727
0001c0 8c 60 bf 3d fd d4 76 bd e9 0c 82 bd 19 a5 a3 3d
       0.09344587 -0.060261715 -0.06350119 0.07990474
0001d0 26 45 44 3d 0a 0c 44 3d 49 a4 eb 3c 1b ca dd bc
       0.047917508 0.047863044 0.02876486 -0.02707391
0001e0 92 2f 76 3d dc 91 ca bd bc 27 64 3c 38 27 4c 3d
       0.06010396 -0.09891102 0.013925489 0.04984209
0001f0 d4 52 84 3d 84 91 4c bd fb e0 95 bd 41 20 f3 3c
       0.06461111 -0.049943462 -0.07318302 0.029678466
000200 c3 c1 bf bd f7 b0 91 bd f8 89 cd bd e2 ca 4b bd
       -0.09363129 -0.071138315 -0.10036081 -0.04975403
000210 f3 f7 c2 bc c8 15 9d bd 22 b1 3e bd a5 1e af bd
       -0.023799872 -0.0767017 -0.046555646 -0.08550767
000220 cb 37 79 3d d5 3d 20 bd 06 93 99 bd b5 61 de 3c
       0.060844224 -0.039121468 -0.074987456 0.0271462
000230 1e 85 99 bd 97 31 8d 3d 1e 98 b2 3c 5a f9 cf bd
       -0.07496093 0.06894224 0.02180105 -0.10154982
000240 62 90 3f bd ea 0c 5c bd f1 50 4f bd 1f 86 d7 3b
       -0.046768554 -0.053723253 -0.0506143 0.006577268
000250 73 a6 be bd fd b5 96 bd 81 1b 6e 3d ae f5 4c bd
       -0.093090914 -0.0735893 0.0581317 -0.050038986
000260 c1 f0 60 bd e9 b6 c4 bd d4 8c 1d 3c 1a ee 33 3c
       -0.0549171 -0.096052 0.009616096 0.010982061
000270 6c 1e 3b bd 98 e5 d4 bd 22 a3 20 3d ab 08 d9 3c
       -0.04568331 -0.10395354 0.039218076 0.026493391
000280 f7 02 23 3d 2d 20 1f 3d ef e9 1a bc ae 08 83 bd
       0.03979775 0.038849045 -0.009455188 -0.0639814
000290 d7 32 08 3d 2a e9 88 3c c1 0d 7c bd aa 27 75 3d
       0.03325161 0.016712744 -0.061536554 0.05985228
0002a0 bc 8f 5e 3d f5 2d a1 bd dc 1a 50 bd 28 8f e9 bc
       0.054336295 -0.07870094 -0.050806865 -0.028510645
0002b0 5d 7b 3b bd 1a 42 5a 3d 14 2b 9d bd b6 06 c2 3d
       -0.045771945 0.053285696 -0.07674232 0.09473936
0002c0 61 34 2c bd 36 c4 13 3d a3 97 53 3c 9e d6 b2 bc
       -0.04204214 0.036075793 0.012914571 -0.021830853
0002d0 0a 52 2f 3d 74 66 b2 bd 65 b0 7f bd 9b 18 65 3c
       0.042802848 -0.08710948 -0.062424082 0.013982917
0002e0 f8 d4 95 3d 61 6c 16 bd 87 87 78 bd a2 a6 88 bd
       0.07316011 -0.036724452 -0.060676124 -0.06672408
0002f0 c1 ea 9a bc 42 1f d8 bc 3f 18 c0 3b 83 65 85 bd
       -0.018910768 -0.026382092 0.0058622654 -0.065135024
000300 70 51 83 3d c3 02 1b bc 1c 1c 81 bd b6 4e 50 bd
       0.06412017 -0.009461108 -0.063041896 -0.050856315
000310 e7 93 45 3d fb ac 26 3b 13 e6 7d 3d cf 5c f9 b9
       0.048236754 0.0025432694 0.061986994 -0.0004756213
000320 67 e9 9e bd d7 f1 aa bd 1b 50 8f bc 0b a2 9c bc
       -0.07759362 -0.083469085 -0.017494252 -0.019120237
000330 66 fa 0d 3c 51 fc a4 bc 52 d6 0c 3d 33 d2 db bc
       0.008665657 -0.020139845 0.03438408 -0.02683363
000340 3b 89 92 3d b5 67 cf 3c 96 eb 62 bd ea e2 bb 3d
       0.07155081 0.025318006 -0.055400454 0.0917414
000350 bb 7f 8f 3c 65 69 a9 bd c7 1a 51 bd b3 5e 80 3d
       0.017516961 -0.082720555 -0.051050927 0.062680624
000360 33 7f 63 3d 7d d9 ab 3d c4 52 89 3b ef 43 8e 3d
       0.05554123 0.08391092 0.0041907746 0.06946551
000370 63 1c 28 3d 50 88 07 3d 20 e4 e8 3a 64 e7 cd 3d
       0.041042697 0.033088982 0.0017768182 0.100539
000380 60 d8 0d 3d bf 03 a6 bc e4 ef 53 3c cf c1 b6 3d
       0.03463018 -0.020265458 0.012935612 0.08923685
000390 e3 61 5f 3d 7c 77 5a bc 49 14 d1 3d f9 32 00 3d
       0.05453671 -0.013334151 0.10208947 0.03129861
0003a0 42 15 7b bc eb b1 b7 bd 5f fd 53 3d a2 3b a6 3d
       -0.0153248925 -0.08969482 0.051755305 0.08116843
0003b0 92 db 77 bd a4 84 8e 3d 64 82 90 3c ff 0d be bb
       -0.060512133 0.06958893 0.0176403 -0.0058000083
0003c0 e8 59 07 bd e5 15 c9 bb a6 78 0d 3d 45 6f be 3d
       -0.033044726 -0.0061366432 0.034538887 0.09298567
0003d0 db 5c 10 3d 44 8a 1b 3d d2 34 ab 3d 3f 26 da 3c
       0.035244804 0.037973657 0.08359684 0.026629565
0003e0 b1 ea ad 3c 74 6c 3b bd f6 74 28 3d 08 9d 2b 3c
       0.021230074 -0.045757726 0.041127168 0.010474451
0003f0 71 84 6f 3d d6 47 af 3d dc d5 2a bd 74 45 94 3d
       0.058475915 0.085586235 -0.04170786 0.0723981

parametric_part.lift_U.bias f4 [93]
000000 f6 3b f3 3c 44 0a a5 bd 41 e4 82 bd c8 c3 85 3c
       0.029691678 -0.08058599 -0.06391192 0.016328707
000010 6a c8 1c bd 19 46 bc 3c 9f 04 81 3c 67 8f e9 bb
       -0.038277067 0.022982644 0.015749274 -0.0071276906
000020 e5 9a b1 bd 48 25 4b 3d e4 23 fa 3c d8 ad 5d bd
       -0.08672122 0.0495961 0.030534692 -0.05412087
000030 28 fc e8 3a 80 53 be 3d 9b e9 c7 b9 93 eb 93 3b
       0.0017775344 0.0929327 -0.00038130287 0.0045141666
000040 bb bc 74 bb 09 18 17 3d 6d 82 78 bd 0a 19 a4 3c
       -0.0037343937 0.036888156 -0.06067126 0.02003147
000050 e3 f4 89 bd f0 f8 b1 bd 80 a4 98 3d 46 8e 8e 3d
       -0.067361616 -0.08690059 0.07453251 0.0696073
000060 c2 d4 c3 3d e2 af a0 bd 75 a2 b3 3d 1b 1b 9f bd
       0.09562065 -0.07846047 0.087712206 -0.07768842
000070 59 d4 6f bd 43 68 e7 3c 91 33 08 3d f7 44 cc bd
       -0.05855212 0.028247958 0.033252303 -0.099740915
000080 24 cd 88 3d aa 31 52 3c b9 bf 25 3d 7c 21 2e 3b
       0.066797525 0.012829224 0.040466044 0.0026570251
000090 5f 75 c3 3d 61 54 da 3b 20 f8 8c 3c 32 8a 02 bd
       0.09543871 0.006662891 0.017208159 -0.031870075
0000a0 c1 d4 5f bd dd f4 87 3d 36 e4 30 bd c6 82 a0 bc
       -0.054646257 0.06638501 -0.04318639 -0.019593608
0000b0 4f a8 ef 3c ce aa b5 bd 71 9c 46 3d 09 a8 88 3d
       0.02925506 -0.08870469 0.048489038 0.06672675
0000c0 17 71 9a 3d 75 6b 11 3c 49 7f 6f bd f6 80 84 3d
       0.075411014 0.008875717 -0.058470998 0.0646991
0000d0 a6 0d 4c 3d 76 ab ca 3d cb df b3 bd 8b 7f 81 bd
       0.049817704 0.09895985 -0.087829195 -0.06323155
0000e0 c1 8e da bd f4 fd a6 bd ba 15 a7 3d 39 b3 cd bd
       -0.106717594 -0.081539065 0.08158441 -0.1004395
0000f0 0c f4 24 3d 56 5e 8e bc 7d 94 ca 3d 4f 06 b5 3d
       0.040271804 -0.017378967 0.09891603 0.08839094
000100 e3 ff 8f 3c 89 97 23 bd 46 6e 6c 3d 47 51 2f 3d
       0.017578071 -0.039939437 0.057722352 0.04280212
000110 52 2a 1f bd a3 cc a3 bd 16 b0 a3 3c 99 19 0c bd
       -0.03885872 -0.07998016 0.019981425 -0.0342041
000120 c1 11 73 bd d4 3c 86 3c bb 45 98 3d 04 e7 c4 bd
       -0.059343103 0.016386427 0.07435175 -0.09614375
000130 eb 8d 5a 3d 94 8c 14 bc 21 7a 05 bc 8f cf b6 3d
       0.053358 -0.00906672 -0.008146794 0.089263074
000140 bc f5 ac 3b 28 af 23 bd a4 43 d7 bc 93 f5 c9 bc
       0.0052783173 -0.039961964 -0.02627737 -0.024653232
000150 07 e8 8f bd 40 e1 a9 bd 22 67 36 3d b5 ad ae bd
       -0.070266776 -0.08294916 0.04453195 -0.08529226
000160 bc 48 08 bd 48 62 90 3d d6 f1 8d b9 37 a2 13 bd
       -0.03327249 0.07049996 -0.00027073798 -0.036043372
000170 67 7b eb bc
       -0.028745366

parametric_part.lift_V.weight f4 [93, 93]
000000 8e 83 43 bd 4a d8 9f bd ba 62 a2 bd 97 88 00 bd
       -0.047732882 -0.07804926 -0.07928987 -0.031380262
000010 d8 f2 0f 3d b5 5c 58 3d 96 95 78 bb 4c c8 b5 bd
       0.035143703 0.052822787 -0.0037930957 -0.08876094
000020 31 e0 8f 3d 30 dd a1 bd a6 15 76 bc 21 35 7f 3d
       0.07025183 -0.07903516 -0.01501981 0.062306527
000030 f8 dd d2 bb 8f 9f a7 3d 5f 3b ee bd a9 93 95 bd
       -0.006435152 0.0818473 -0.11632418 -0.073035546
000040 86 d9 30 3d 71 d0 b6 3d d8 c0 b3 3d 67 28 c0 3c
       0.043176197 0.08926476 0.087770164 0.023456765
000050 ff 03 6a bd d5 02 3c bc dd d6 dd bd 47 b4 4d bd
       -0.057132717 -0.011475285 -0.108319975 -0.050220754
000060 5c 8f 1d bd 82 cc 05 bd 5d 4f a5 3d 4d bf d5 bd
       -0.038466796 -0.032665737 0.08071778 -0.10436878
000070 49 ca 95 3d 3f 48 7c 3d fc eb 15 bd 2e 48 e7 bc
       0.073139735 0.061592337 -0.036602005 -0.02823266
000080 f5 42 7f bd 40 d2 65 bc 07 dc 16 3b 1d a9 80 bd
       -0.062319715 -0.014027178 0.002301933 -0.06282256
000090 ec ab a2 3d 3c 31 b8 bd 34 a8 49 bb ae 05 a1 bd
       0.07942948 -0.08993766 -0.0030770423 -0.078624114
0000a0 53 ef 81 bd e5 af ab bd 8e 15 5c bd 5a 90 10 bc
       -0.063444756 -0.083831586 -0.053731494 -0.008823479
0000b0 01 dc c3 bc a4 28 a3 bd 14 d8 b1 3d ac af 54 3c
       -0.023908617 -0.07966736 0.08683792 0.012981337
0000c0 f7 bd b0 3d 38 e4 51 3d 63 91 9a 3b 65 e2 a0 bd
       0.08629983 0.051243037 0.0047170385 -0.07855681
0000d0 24 02 bb 3c 50 29 e8 3b 55 6f b7 bb 6d b0 1c bd
       0.02282817 0.007085003 -0.0055979886 -0.03825419
0000e0 32 72 10 bd ca 26 bc 3c de d6 96 3d 64 5a 66 3c
       -0.035265155 0.022967715 0.073652014 0.014059637
0000f0 ba f2 bd 3c c1 13 6d bd ee bd a7 bd 7d 5b 04 be
       0.02318703 -0.057880167 -0.08190523 -0.12925525
000100 9e fe 39 bd 1c 54 92 3d 79 2b a1 3d 73 54 b5 3d
       -0.045408837 0.07144949 0.0786962 0.08853998
000110 7b 4c db bb 1e 63 24 bd ff 6d 45 bb 74 d6 39 3d
       -0.006692467 -0.040133588 -0.0030125377 0.045370534
000120 34 77 01 3d df bd 31 bd f1 e6 10 bc e2 b2 90 bd
       0.03160782 -0.043393966 -0.008844123 -0.07065369
000130 c0 ad 36 3d 2b f7 14 bc de 69 87 bd d2 e8 81 3d
       0.044599295 -0.009092133 -0.066119894 0.06343235
000140 ac b8 2f 3d 52 82 a8 bd 57 b4 fa 3d 11 42 8d bd
       0.042900726 -0.082279816 0.12241428 -0.06897367
000150 52 5b 93 3d 1b d7 94 bd 99 a0 31 bd 04 6f e3 bc
       0.07195152 -0.072675906 -0.04336605 -0.027762897
000160 54 cb 49 bd ef e3 48 bc 36 02 78 3d 63 bf ab bd
       -0.049266174 -0.012261375 0.060548984 -0.083861135
000170 66 5d a7 bc 8f 23 26 bd f4 c6 66 bd 61 5a 41 bd
       -0.020430278 -0.040561255 -0.05634208 -0.047205333
000180 7b e7 90 bd 28 fa cd 3d d8 26 3c bd 90 e8 75 3d
       -0.070754014 0.10057479 -0.04593548 0.060036242
000190 30 a9 98 3d 24 cd 45 bd c4 1c 1c 3e a6 df d7 bc
       0.07454145 -0.04829134 0.15245348 -0.026351761
0001a0 2c 07 e2 3d 94 d4 b0 3c c3 13 79 3d ec 97 1d bd
       0.11036524 0.02158574 0.060809862 -0.038474962
0001b0 57 1f c7 3c 53 b8 ef 3c db b1 b3 3d e8 31 65 3d
       0.024306936 0.029262697 0.087741576 0.055955797
0001c0 2d 5e 1e be de 8e 25 3e f0 93 ef bd aa a9 dd 3d
       -0.15465613 0.16167781 -0.11698139 0.108233765
0001d0 0e ca e0 bd a4 7d 76 3c 2d 9b 87 3d 01 01 2c be
       -0.10976039 0.0150446035 0.06621394 -0.16797258
0001e0 81 b0 af bc 5c 23 92 3d 09 23 b7 bc 3e 29 43 bc
       -0.021446468 0.071356505 -0.022355573 -0.011911688
0001f0 47 28 49 3d f6 07 9e bd 7f c7 25 bd 22 54 c8 bd
       0.049110677 -0.07716362 -0.040473457 -0.09781672
000200 ae 2d ef 3d 85 70 63 bc 7a c1 7b 3d 98 ad 38 bd
       0.116786346 -0.013881807 0.06146381 -0.045087427
000210 86 aa 65 be d4 59 0b 3e 99 75 9a bd 4c 1e b8 3d
       -0.22428331 0.13608485 -0.07541961 0.08990154
000220 9e f1 05 3e 79 47 bd 3c 1b 58 f8 3c 4f 2c cd 3d
       0.13080451 0.02310537 0.03031545 0.10018217
000230 5e a5 9b 3c dc 2e a6 3d fb 07 d9 3d 05 27 a4 bd
       0.018999752 0.081144065 0.10597225 -0.08015255
000240 a6 ff ab 3c cb aa 5c 3d 49 0b 05 3d 90 47 fa 3c
       0.020995926 0.05387382 0.032481465 0.030551702
000250 c0 5d 83 3d 17 b4 22 3c 95 bb 16 bd 57 af 79 3c
       0.06414366 0.009930632 -0.036799986 0.015239558
000260 78 cf c7 3d c5 8a 44 3d 53 3c cf 3c db 7d 33 bc
       0.097563684 0.047983903 0.02529732 -0.010955299
000270 83 e2 8b 3d a3 cb d8 3c ad ab 49 3d d6 7b a2 3d
       0.06830313 0.026464289 0.04923599 0.07933776
000280 c4 05 31 3a f7 e5 99 bd c7 37 9c bd 7c 04 12 bd
       0.00067528733 -0.075145654 -0.07627826 -0.035648808
000290 cb 5d 1c 3e 6c e2 07 bd 10 d4 a8 3c f0 5e 7b bd
       0.15270154 -0.033174917 0.020608932 -0.061369836
0002a0 63 3d 2b 3a 7c 81 4d bd 68 68 c7 bd 7e 1b f9 bd
       0.00065322797 -0.050172314 -0.09736711 -0.12163447
0002b0 a9 ff bf 3d 57 f5 06 bc 23 67 08 3e 69 5d a7 bd
       0.09374935 -0.0082372045 0.13320594 -0.081721134
0002c0 13 2d a7 3d 61 39 51 3d b2 94 58 bd ab 9e c2 bd
       0.08162894 0.05108011 -0.052876182 -0.0950292
0002d0 cc cf 76 3c 40 f3 b5 bd 5b f4 a8 3d c7 ce ba 3d
       0.015064191 -0.08884287 0.08249732 0.09121471
0002e0 b3 91 2e 3e a9 04 b5 3d 53 08 db bd b4 2b 23 3d
       0.17047767 0.088387795 -0.10694947 0.0398366
0002f0 92 89 5f 3b 28 88 9c bd 8a d5 8d bc 2f 78 0e bd
       0.0034109098 -0.07643157 -0.017313737 -0.034782585
000300 d2 1c 56 bd 81 ec 6a ba 7f 65 90 3d de 94 08 be
       -0.05227358 -0.00089616334 0.07050609 -0.13338038
000310 0b 80 70 bc 64 a2 54 3d 9c d3 3b 3c 76 1d e2 3c
       -0.014678965 0.05191268 0.011464026 0.027601939
000320 14 6b 83 bd a5 97 ff 3d eb 3d 41 be 67 17 82 3b
       -0.06416908 0.12480096 -0.18871276 0.003970075
000330 d6 b6 0d 3c 0f 8f 2d 3d b1 43 3a 3d d2 bf fc bd
       0.0086495485 0.04237276 0.04547471 -0.12341274
000340 68 1c c9 3d 42 f9 f9 bd e1 53 c5 bc d1 87 b2 bd
       0.09819871 -0.12205745 -0.024087848 -0.08717311
000350 7b fc 16 bc 43 97 14 bd a5 4b 21 3d f7 d0 f2 3b
       -0.0092154695 -0.036277067 0.03937878 0.0074101645
000360 e2 e0 4b 3c db 3a 09 3e 11 3f 2c 3d fc 64 b5 3d
       0.012443753 0.13401358 0.042052332 0.08857152
000370 a6 40 02 3e 8e 60 ee bb f5 87 8f 3c a6 4b c2 bb
       0.12719974 -0.007274694 0.017520884 -0.005929428
000380 1b 4f 9f 3d 04 14 e8 3c 63 00 8b bd df cd ef 3d
       0.0777876 0.028329857 -0.06787183 0.11709189
000390 42 31 4a bd 10 db 82 3c d4 9d ad bd aa 32 34 3a
       -0.049363382 0.015973598 -0.08477369 0.00068740046
0003a0 18 9e 86 3d c1 13 a2 bc 19 c9 5b bb 9b 58 85 3d
       0.06573123 -0.01978481 -0.0033536612 0.06511041
0003b0 bb db 9e 3b fa 94 47 3d c0 88 ef bd 38 b8 ba bd
       0.0048479713 0.04872606 -0.11696005 -0.09117168
0003c0 44 cc 32 3c eb 37 4f 38 37 fc 1b bc 8a 1a 99 bc
       0.0109129585 4.9404724e-05 -0.009520582 -0.018689413
0003d0 f0 99 e0 3d 9c 25 f2 3c 5a 9c 2c 3e ba a6 9b 3c
       0.10966861 0.02955895 0.16856518 0.0190004
0003e0 da 1b 9e bc a8 d7 7c bd eb a6 3a 3d b8 db 94 bd
       -0.01930039 -0.061729103 0.04556934 -0.072684705
0003f0 8e 60 06 3d 5a fc 75 3d 14 1d f3 bc 37 8d 80 3c
       0.032806925 0.060055114 -0.029676951 0.015692336

parametric_part.lift_V.bias f4 [93]
000000 2d 6a f4 ba 84 32 88 3c a1 2c 9b 3c 29 43 99 bb
       -0.0018647366 0.01662565 0.01894218 -0.0046771956
000010 ef fd 3a 3d 2c ce d3 bc b9 30 1f 3d cb 6b 31 3d
       0.045652326 -0.025855146 0.038864825 0.04331569
000020 c9 09 6e bd c4 51 a1 3a 19 95 a0 3d 10 65 af bd
       -0.0581148 0.0012307693 0.07840938 -0.08564198
000030 f8 c4 96 bc a0 6f bb 3c 50 e3 74 3d 52 40 bd 3d
       -0.018404469 0.022880375 0.059787095 0.09240784
000040 fa 39 47 3d 87 a9 68 3d aa 15 c3 bc c3 98 ff 3d
       0.048639275 0.0568023 -0.023814041 0.12480309
000050 0a 61 e8 3c ba d4 df 3c 8d d4 c6 3d 5e 8b c3 bd
       0.028366584 0.027323116 0.097085096 -0.095480666
000060 dc a9 3a bc bd 27 a3 bc a8 aa 82 3d 7c 85 16 3d
       -0.011393037 -0.01991641 0.06380206 0.036748394
000070 52 08 73 3c ef c0 1b 3d 8e 32 81 3d d6 3c 7e bc
       0.014833527 0.038025793 0.06308471 -0.015517434
000080 a2 69 ab 3d 7c 95 13 bd 7a 7e 5f bc 56 9d 0f be
       0.08369757 -0.03603123 -0.013640994 -0.14024863
000090 8a 9c 83 3d 59 c3 60 3d 29 6d 92 3a 2f f4 df bd
       0.06426342 0.054873798 0.0011171448 -0.10935246
0000a0 76 e9 c7 3c bc 2f 29 bd 74 29 03 bd cb 48 09 bd
       0.024403315 -0.04130529 -0.032021955 -0.033516686
0000b0 0b 32 3d 3d c8 1f 2c 3d 47 9c ab bd 54 ba 11 bd
       0.046190303 0.042022496 -0.08379417 -0.035578087
0000c0 1d d7 d3 bc 97 a4 39 3d 9f 38 0f bd 94 3a 95 3c
       -0.02585941 0.04532298 -0.034966107 0.018216409
0000d0 14 35 c0 3c 93 a0 a0 3c 84 31 00 be cb 72 71 3c
       0.02346281 0.019607818 -0.12518889 0.014736841
0000e0 98 ad c6 3d c8 f0 af 39 54 e1 0e 3d fe 46 df 3b
       0.09701079 0.00033557997 0.03488286 0.006813883
0000f0 26 da b5 bd b1 89 91 3d 28 85 58 3d f9 46 b3 3d
       -0.08879499 0.07106341 0.052861363 0.08753771
000100 8c 16 37 3c 12 61 9a 3c 92 57 ba 3b 71 23 0a 3d
       0.011174809 0.018845115 0.0056867087 0.033725206
000110 de 01 85 3c 7b e3 9e bd 5a 5c 61 bd b3 03 1c 3d
       0.016236242 -0.07758232 -0.055019714 0.038089465
000120 c3 20 56 3d 8c d0 3d 3d 65 8d 4c 3c 4c 3a 49 bd
       0.052277338 0.046341464 0.012484883 -0.04912786
000130 c4 fd 3f bd f3 a8 c8 3d d3 0b 55 bd 72 e5 91 bc
       -0.04687287 0.097978495 -0.05201323 -0.017809603
000140 0b 39 d5 bc 77 b4 c4 bc c2 3e 7f 3d 56 27 0d 3d
       -0.026028177 -0.024011834 0.06231571 0.03446134
000150 66 3a e7 bd 49 40 72 3d 4f 3c 36 bd 5e 71 05 3d
       -0.112904355 0.05914334 -0.04449111 0.03257882
000160 5f aa dc bc 4d f7 b3 b9 f9 93 ec 3c d2 80 87 3c
       -0.026936708 -0.00034325794 0.028879153 0.016540918
000170 d8 53 90 bd
       -0.07047242

parametric_part.lift_H.weight f4 [93, 93]
000000 cb 7e af 3a 1c 37 9f 3d 46 9a 08 be eb f7 3e 3d
       0.0013389228 0.07774183 -0.133401 0.04662315
000010 90 0f a6 3d b7 4e 45 3d 1c b0 eb 3c 1d 7c f9 bb
       0.08108437 0.04817077 0.028770499 -0.0076136724
000020 71 ad a3 bd 7a 1c 43 3e 93 28 48 3d 73 cb 91 3d
       -0.07992066 0.19053832 0.04886682 0.07118883
000030 69 55 0b bc 43 08 c3 bc 65 50 d7 3c 41 cf b5 3c
       -0.00850425 -0.02380765 0.026283452 0.022193553
000040 44 c3 81 3d 1d f4 82 3d 5e 13 e9 bd 60 cd bd bd
       0.06336072 0.06394217 -0.11380647 -0.09267688
000050 fc 9c 8b 3c ff 5d 73 3d 7d 12 3d be 21 c9 bd 3c
       0.01704263 0.059415814 -0.18464084 0.023167195
000060 32 d3 e3 bd 3a d3 4a be 01 59 1b bd 36 35 98 3c
       -0.11124267 -0.19807139 -0.037926678 0.01858006
000070 ef 0b f6 3d ff e5 05 3c bd 0c 0e 3d 32 7c 94 bd
       0.12013995 0.008172511 0.034680117 -0.07250251
000080 e5 fb e6 3d cd c5 b6 bc 8e 6e 35 be 65 29 ee 3c
       0.11278514 -0.022311116 -0.17717955 0.029072473
000090 f4 4d f0 bc a6 c4 38 be a0 e1 40 bc 9a 06 36 be
       -0.029334046 -0.18043765 -0.011772543 -0.17775956
0000a0 10 7d e2 bd b7 51 5a bd ea 2c 68 bd 7c 12 aa bd
       -0.1105901 -0.053300586 -0.05668346 -0.08304307
0000b0 22 e2 38 bc 5f d8 2c 3c 3e e9 22 be e7 60 0a be
       -0.011284383 0.010549634 -0.15909287 -0.13513528
0000c0 30 22 25 3e dc 4a 60 bd 9c fb 6b bc f0 ef 8f bb
       0.16126323 -0.05475889 -0.01440325 -0.0043926165
0000d0 a9 6b 1e 3e 27 2a ea 3d 2c 13 cd bd 39 5b 86 bc
       0.15470757 0.11433821 -0.10013422 -0.01640092
0000e0 47 d6 3e bd 7f 7b d0 bd 92 b5 a0 bd ad c6 13 3d
       -0.04659107 -0.10179805 -0.07847132 0.036078144
0000f0 ff 87 05 3c bf ac 97 bd a8 50 c0 3a b3 b5 11 3e
       0.0081501 -0.074059956 0.0014672475 0.14229469
000100 d5 03 18 bd 4d 1f 04 3e 57 36 b0 bc b1 a2 25 3c
       -0.03711303 0.12902565 -0.021510286 0.010109589
000110 84 da e0 bc 97 4b 13 3e 40 81 91 bd e8 ce 83 ba
       -0.027447946 0.14384304 -0.071047306 -0.001005617
000120 e2 85 f3 bc 5b a3 b3 3d 15 0b e8 bd c8 d5 21 3c
       -0.029726926 0.08771392 -0.11330239 0.00987763
000130 bb b1 b5 bc 8f af 30 bd b9 08 d3 bc 18 19 0c 3e
       -0.022179475 -0.043136176 -0.025760995 0.13681448
000140 a4 6b 55 3d 72 43 6a bc 95 57 5e 3c d7 d0 d7 3d
       0.052104607 -0.014298307 0.013570686 0.1053788
000150 6c 56 c9 3d 80 37 ca bd 81 40 d7 bc 81 5b 73 bc
       0.09830937 -0.09873867 -0.026275875 -0.014853359
000160 8e ac c1 bd ee 71 51 3d 1d 17 0c bd bf 9f 62 3c
       -0.0945674 0.051134042 -0.03420173 0.013832032
000170 05 09 05 bc 0e 8a ce 3d 9c 20 b3 3d f8 0a f5 bd
       -0.008119826 0.100849256 0.08746454 -0.11964983
000180 08 cd 16 3e 2d 3f a0 3d 48 2d 5e 3c e4 91 33 bd
       0.1472665 0.0782455 0.013560601 -0.043840304
000190 40 cb 43 3d e1 21 94 bd cd 82 00 3d 84 41 c4 3d
       0.047801256 -0.072330244 0.03137474 0.095828086
0001a0 d6 5a d6 3d 1e 7b ab 3d 35 5b a4 3b b3 a8 55 bd
       0.10466544 0.08373092 0.0050157555 -0.052162837
0001b0 17 b3 92 bd 49 18 8b bd 8b 32 99 3d 24 d9 01 3e
       -0.07163065 -0.067917414 0.074803434 0.12680489
0001c0 0a 66 89 bd 9c 1f af bd b6 65 1e 3e c8 58 19 3d
       -0.067089155 -0.08550951 0.15468487 0.037438184
0001d0 0f 86 d5 bd 10 84 0a 3d c0 fa 8a 3d 7b ba 82 3e
       -0.1042596 0.03381735 0.06786108 0.25532898
0001e0 a3 09 c6 3c 87 d1 bd bc ba 5b bc 3c d6 73 07 be
       0.024174517 -0.0231712 0.022992957 -0.13227782
0001f0 dd cd 4d bd 22 dd d5 3d 2c 46 bd 3b 9c 03 aa bd
       -0.050245155 0.10442568 0.0057761874 -0.0830147
000200 70 6f 64 3e df 1d 3c bb ea ac 3a bd a0 4f 64 3c
       0.22308135 -0.0028704328 -0.04557506 0.013935
000210 8e 1c 75 bd 33 e9 f8 3c 1c df 3e bd 09 ce 9e bd
       -0.059841685 0.030384636 -0.046599492 -0.07754142
000220 88 04 3d 3e 4a 01 bb 3d 79 07 3f 3a 15 02 db 3d
       0.1845876 0.09131105 0.0007287185 0.106937565
000230 4a 6b 14 bc 20 7a 18 bc 56 fb 34 bc 4e dd 60 3c
       -0.009058783 -0.009306461 -0.011046251 0.013724638
000240 2d fe 0e 3e fb 29 0f 3e 7b 56 22 3c 8b de ee bd
       0.13964148 0.13980858 0.009908314 -0.116635405
000250 86 ad a5 3d 30 3a 7b 3c e7 96 cc bd ab cb 6b bd
       0.080897376 0.015333697 -0.0998972 -0.05756728
000260 a4 aa 19 bd 7e 05 78 bd 4d f5 0d be a5 ea 99 3d
       -0.03751625 -0.060552113 -0.13863106 0.07515458
000270 cf 85 8a 3c 0b a5 1a bd db a1 17 3c e6 f1 84 3e
       0.016909508 -0.037755053 0.009254898 0.25965804
000280 9f 50 ad 3d d8 eb 4f 3d c6 ea f2 3d 31 12 70 3d
       0.08462643 0.050762028 0.11861186 0.0586111
000290 8f f0 09 bd 41 79 a5 3d 77 41 57 3e 36 0f 98 3d
       -0.03367668 0.08079768 0.21021067 0.07424776
0002a0 3f f4 35 bb f7 f8 2a 3d 83 4c c2 3e cd 17 9d bd
       -0.002776399 0.041741338 0.37949 -0.07670555
0002b0 2b f7 cf 3d e9 87 6c bd 2f 57 a1 bb e1 17 62 bd
       0.101545654 -0.0577468 -0.004923723 -0.055198554
0002c0 87 77 09 3c 1a 90 3f be f6 b9 19 3d ee 97 86 bd
       0.008390314 -0.18707314 0.03753086 -0.06571947
0002d0 8d 0e 16 3d 6e e7 be bd c7 d4 d6 bd dd e2 cd bd
       0.03663497 -0.093214855 -0.10489803 -0.10053036
0002e0 17 00 a1 bd 48 0d 63 bd e8 b2 d1 3d b8 60 64 3c
       -0.07861345 -0.055432588 0.10239202 0.013939075
0002f0 ff dd c9 bd 71 28 b1 3d 6b 25 14 be fc ba 7b 3e
       -0.098567955 0.08650292 -0.14467399 0.24583048
000300 f8 b3 55 bd ce 5c f6 3d e0 9e 12 3e 08 32 7c 3d
       -0.052173585 0.1202942 0.14318419 0.06157115
000310 13 4f 8f 3b cc 59 96 bd ec dd 92 3d a3 06 69 bd
       0.00437344 -0.07341346 0.071712345 -0.056891095
000320 8e 42 45 be 4e 79 09 be 46 47 b6 bd 44 db 9c 3d
       -0.1926367 -0.1342518 -0.08900313 0.07659009
000330 9c 47 22 3e c5 c0 06 3d 6a 7d dd 3d cc 52 00 3d
       0.1584763 0.032898683 0.108149365 0.03132896
000340 e1 95 69 3d 84 e0 65 bd f9 87 ea bc 61 d9 cf 3d
       0.0570277 -0.056122318 -0.02862929 0.101488836
000350 63 14 a4 3d 48 54 ab bd 97 b0 48 be 36 be a9 3d
       0.08011701 -0.08365685 -0.19598614 0.08288233
000360 8b b4 80 3c 04 c3 a9 3d 9a 87 6c bd 76 ad 87 bd
       0.01571109 0.082891494 -0.057746507 -0.06624882
000370 91 f3 2c 3e 1e 34 fd 3c d1 35 ed 3d fe 63 3a 3e
       0.16889788 0.03090864 0.1158253 0.18202206
000380 30 a9 df 3d 0e 9a 02 be 2e e3 2a 3e 6e 01 de 3b
       0.10920942 -0.1275408 0.16688225 0.006775073
000390 37 05 83 bd 2b a9 61 bd bf 51 2a 3e ce cd 33 bd
       -0.06397479 -0.05509297 0.16632746 -0.043897443
0003a0 47 5b f5 3c 60 ad e1 3c 11 6c de bc 3d a5 d6 3c
       0.029950751 0.027548492 -0.02715114 0.026201839
0003b0 3c a4 5c 3e 7e 7c bf bc a9 fd 50 be fc d9 fe 3d
       0.21547025 -0.023374792 -0.20409264 0.12443921
0003c0 f1 d4 3d 3e 6b 26 8f 3d e3 b6 e1 3b d4 1b 09 3d
       0.18538262 0.069897495 0.006888257 0.033473805
0003d0 b1 df a7 3e 0e 52 94 bd e6 d0 8c 3e 9e 6a 36 be
       0.3278785 -0.07242213 0.27503127 -0.17814109
0003e0 2a fc 46 3e 5b d5 a7 3d dc 2f 67 3d 21 fe d0 bc
       0.1943213 0.08194991 0.056442127 -0.025511803
0003f0 c3 eb 65 be 46 db b6 3c c5 a7 90 3d 1c 3a 51 bd
       -0.22453217 0.022321355 0.070632495 -0.051080808

parametric_part.lift_H.bias f4 [93]
000000 5e a9 24 3d 5b 94 dd 3d fc 09 24 be 42 a2 93 bd
       0.040200584 0.10819312 -0.16019434 -0.072086826
000010 f7 78 b4 bd 8d 33 c9 3d 26 f9 f5 3c 2b af 44 bc
       -0.08812135 0.09824286 0.03002603 -0.012004654
000020 f4 a6 46 bc d7 be b3 3c 58 57 fc 3c ad fc 73 bc
       -0.012124766 0.021941585 0.030803367 -0.014891786
000030 c5 31 a1 3c 95 2d fe 3d 74 d5 90 bc 9e f1 7b bd
       0.019677052 0.12411038 -0.017679907 -0.06150972
000040 17 b2 93 bc 2e 51 14 bd 76 00 2e 3c ca d3 06 bd
       -0.018029256 -0.03621023 0.010620227 -0.03291682
000050 95 4d 4d bd 81 4e 3b bd f2 56 e5 3b 85 3d 2a 3c
       -0.050122816 -0.045729164 0.00699889 0.010390644
000060 db b2 87 bd a5 bd ce bc 15 30 b7 bb 51 fe 03 3e
       -0.06625911 -0.025236914 -0.0055904486 0.12889983
000070 80 38 54 3d 3b cd ab bd 3d 73 3f 3d 0e 69 02 bc
       0.051811695 -0.08388754 0.04674076 -0.007959617
000080 ad b9 e1 bb 18 a4 6e bd 03 e5 41 3d 04 08 3b 3d
       -0.0068885894 -0.05826196 0.047337543 0.04566194
000090 fd 5e ee bd 7a df 64 3c d5 9f ee bd ba bc 1e 3e
       -0.11639211 0.013969297 -0.11651579 0.15501681
0000a0 f4 2f 5d 3d 7f 0d 98 bd 4b d6 de 3c ae a6 ca 3d
       0.05400081 -0.07424449 0.027201792 0.09895073
0000b0 d8 96 83 3c ca 6e b6 bd 70 4e bb 3d aa fc 58 bb
       0.016063139 -0.0890785 0.0914582 -0.0033109584
0000c0 2d a2 43 3d ca 53 d7 3d 28 40 a3 bd e4 3d 48 bd
       0.047762085 0.10514028 -0.07971221 -0.04888715
0000d0 49 bd d0 bc 76 80 4b 3d f3 b4 15 bd 0d 56 72 3d
       -0.025480883 0.049683057 -0.03654952 0.059164096
0000e0 60 a1 31 bd a5 75 ce bb 18 d9 04 3e 36 ce fd 3d
       -0.04336679 -0.0063006454 0.1297344 0.12392847
0000f0 8b 6d 84 bd ad b4 20 3c 14 d6 4b bb 13 1c 06 3d
       -0.06466206 0.009808701 -0.0031102942 0.032741617
000100 87 f4 ec bd b8 e6 90 3d e8 13 21 bd fd 74 ab 3d
       -0.115700774 0.07075256 -0.039325625 0.08371923
000110 6f 55 0a bd 57 f8 83 3d a9 e2 2d 3d e6 93 f1 bd
       -0.033772882 0.064438514 0.042452488 -0.117957875
000120 0c ef 7c 3d 6a 06 ef bd e9 be da bd 90 f1 95 bc
       0.06175141 -0.11671145 -0.106809445 -0.018303663
000130 16 73 07 3e 69 e8 90 3d c1 8e 33 bd 69 14 18 bd
       0.13227496 0.07075579 -0.043837313 -0.03712884
000140 6f 46 a3 3d c4 1b 6d 3a d8 35 a6 3c 10 17 75 bd
       0.079724185 0.000904497 0.020289347 -0.059836447
000150 77 6c 41 3d 05 af f5 bb 45 cb 1e bd 5a 68 92 3d
       0.04722258 -0.0074976706 -0.03876807 0.0714881
000160 b8 1c 01 be bf 07 f4 bc d9 c8 cb bd 1a e0 e6 3d
       -0.12608612 -0.02978885 -0.09950418 0.11273213
000170 21 d8 70 bd
       -0.058799867

parametric_part.linears_Z.0.weight f4 [93, 93]
000000 f0 3b 09 3e b0 c0 e9 bd 25 65 ab 3c c9 06 a2 bd
       0.1340177 -0.11413705 0.020922253 -0.079114504
000010 70 e4 96 bc 8b 72 ca 3d fe ba dc bd a5 5f bb bd
       -0.018419474 0.098851286 -0.107778534 -0.09149102
000020 07 74 b6 bd d0 87 cc 3c 67 4f ed bd 70 1b dd 3c
       -0.08908849 0.024967104 -0.115874104 0.026990622
000030 38 23 0a 3d d3 a3 2f 3e 65 92 09 bc 37 4b 38 3e
       0.033724993 0.17152338 -0.00839672 0.17997442
000040 72 5e 97 bd f8 fe cd bb 6d 57 02 be 95 ae 89 3d
       -0.07391061 -0.006286498 -0.12728663 0.06722752
000050 fe 20 9a 3d 76 41 ca bc 0a a3 92 3d aa 57 08 bc
       0.07525824 -0.024689417 0.071600035 -0.008321682
000060 b8 2d ac 3c 26 1a f5 bc d1 d3 41 bd 58 0d 54 3c
       0.021017894 -0.029919695 -0.047321144 0.0129426345
000070 59 c8 1d be 9d 6b 28 bd 43 68 21 3d 4a df 03 3d
       -0.15408458 -0.041118253 0.039406072 0.032195367
000080 ce 45 4f bd 7f 60 d5 bc 83 01 f1 bc 79 0c 29 3d
       -0.05060368 -0.02604699 -0.029419666 0.04127166
000090 09 51 11 bd 56 1a 34 3e a9 af d8 bd c7 ed 00 bd
       -0.03547767 0.17588171 -0.105803795 -0.031476762
0000a0 01 ee 46 3d 9a 13 30 bd 27 b5 8a bd 80 f9 c0 3d
       0.048566822 -0.042987444 -0.06772833 0.09422588
0000b0 cb ff e2 bd 75 19 ea bc bd 09 b7 bd a8 8a 49 bc
       -0.11083945 -0.028576592 -0.08937404 -0.012301125
0000c0 69 e6 b0 3d d6 3b ba bd 4d f4 96 3d e8 6d 12 bc
       0.08637697 -0.09093444 0.073708154 -0.0089373365
0000d0 7e 73 78 bd 67 09 eb bd ad 51 a1 bd 0d a5 16 3d
       -0.060657017 -0.11476403 -0.078769065 0.0367785
0000e0 bb 4a d9 3c b2 6a b0 bc 73 51 1d 3d da c7 e8 3c
       0.026524892 -0.021535251 0.038407754 0.02841561
0000f0 a7 26 a9 3c f7 02 03 3d 34 b3 c5 bd a4 42 d7 3d
       0.020648314 0.03198525 -0.09653321 0.105107576
000100 f5 ef b2 3c 5b 77 e0 3d 7d 7e 53 3d ad 49 b2 bc
       0.021842936 0.10960265 0.0516343 -0.021763647
000110 9e 1b 4e bd 47 4f 24 be 0c 47 e7 3d 41 ed 54 bc
       -0.050319307 -0.16045867 0.11292848 -0.012996019
000120 71 01 25 3d d8 28 90 bd 96 32 16 bc 58 06 d9 3b
       0.040284578 -0.0703904 -0.009167334 0.0066230707
000130 66 cf 94 bd 93 3c 1f 3d 93 ab 0f 38 12 bf 19 be
       -0.072661206 0.038876127 3.4253648e-05 -0.15014294
000140 16 ed f8 3c 01 30 6e 3d 3b fe a1 bd 82 e9 f0 bd
       0.030386489 0.05815125 -0.07909819 -0.11763288
000150 fb 22 b2 bc df 4e b0 3d 82 64 8a 3d ab 39 46 3c
       -0.021745196 0.086087935 0.067574516 0.01209871
000160 91 f7 2d 3c 55 75 24 be cc d1 28 3d 87 ea ef bc
       0.010618106 -0.16060384 0.041215703 -0.029286636
000170 4d 60 64 3c 0d fc 5a 3d fe b1 e3 3c 7e 10 2b 3e
       0.0139389755 0.05346303 0.027794834 0.1670551
000180 aa 47 e3 3d d9 dc 35 3d 32 f5 12 3e a0 71 9b bd
       0.11097653 0.04440007 0.14351347 -0.075900316
000190 36 26 eb bd 15 5c db bc 53 3e 12 3e 38 ad 86 bb
       -0.114818975 -0.026777307 0.14281587 -0.0041100048
0001a0 56 00 21 3d 06 57 a0 3d 71 d2 00 3e 7f dc 86 3d
       0.03930696 0.078290984 0.12580277 0.06585025
0001b0 28 95 80 3e b9 a6 b1 bd 59 67 e3 3d 6f 97 19 bd
       0.25113797 -0.08674378 0.111036964 -0.037497934
0001c0 7d 5a 0c 3d 3b 01 25 bd 59 3e 3f 3d dc dc 29 3e
       0.034265984 -0.040284377 0.04669032 0.16588157
0001d0 93 c2 3a be 41 c9 a2 bd 29 67 1f 3e 07 a6 23 be
       -0.18238287 -0.079485424 0.15566696 -0.15981303
0001e0 ac 3f cb 3d 4f 4d 8b bd f0 17 84 3d d9 ab 03 3e
       0.09924254 -0.06801855 0.06449878 0.12858523
0001f0 b7 65 58 bd 63 04 39 3c 65 2f 81 3e 9a 6d 8d bd
       -0.052831378 0.01129255 0.25231472 -0.069056705
000200 a0 47 52 3d 36 29 cf 3c b7 eb 49 3e 8d 13 e2 bc
       0.05133784 0.025288206 0.19718824 -0.027597213
000210 69 a9 22 be 97 19 be 3d f6 b7 a4 bc 94 ce dc 3d
       -0.15884937 0.092822246 -0.02010725 0.10781589
000220 6c c2 d1 3d e8 c2 35 be 6b b6 b0 3e 1b b7 02 be
       0.10242161 -0.17750132 0.34514174 -0.12765162
000230 c3 f8 81 3d f5 88 4c bb b2 54 85 bd d3 59 e3 3d
       0.06346276 -0.0031209562 -0.06510295 0.11101117
000240 03 98 ec 3c a1 68 6f 3e 9f 7a 93 3d 86 4c 6e bd
       0.028881079 0.23379757 0.072011225 -0.058178447
000250 81 8b b6 bd c8 01 b8 3d 10 90 f2 bd c8 1e 84 bc
       -0.08913327 0.08984715 -0.11843884 -0.016127959
000260 f9 19 a1 be 03 e7 d3 3d 8e 75 7c bd 0c 7d 3f 3d
       -0.31465128 0.10346796 -0.061635546 0.046750113
000270 4a 12 41 3d 4b 43 1a bd d9 ed 85 3d 58 e5 81 3d
       0.047136582 -0.03766183 0.065395065 0.06342572
000280 e9 cb 24 3e 0a 87 9e bd 42 c9 73 be 5d 55 81 bb
       0.1609341 -0.077406004 -0.23807243 -0.0039469437
000290 9d 02 09 be fb 84 f9 3c 6a 5e 41 3d 7d 6c 76 bd
       -0.13379903 0.030458918 0.04720918 -0.060162056
0002a0 cf a9 72 3d 9c 86 05 3e 02 4e 90 bd ba 9e f1 3d
       0.059243973 0.1303963 -0.07046129 0.11797853
0002b0 1a 15 9e bd 7b a0 6d bd 63 2e 9d 3d 07 15 b2 bd
       -0.077188686 -0.058014374 0.07674863 -0.08695417
0002c0 ba 8d 8c bd 33 1e 79 3c 03 dc 3c 3e b4 89 0a 3e
       -0.0686297 0.015204954 0.18443303 0.13529092
0002d0 8d 21 59 3d 7a 9d e3 3b a8 29 05 be a9 6b 04 be
       0.053010512 0.006946263 -0.13004172 -0.12931694
0002e0 4f 57 ae 3c ff 4f 2f be 89 42 44 3e 84 81 3a bc
       0.021281866 -0.1712036 0.19166006 -0.011383418
0002f0 2f 9f 4c bc e4 2a c8 3d 69 fa 13 be 57 f7 c0 bc
       -0.012489124 0.09773806 -0.14450993 -0.02355544
000300 7e 11 17 3d bb 35 4b 3d f1 02 1f be 2e cd b2 bc
       0.036881916 0.04961179 -0.15528466 -0.021826353
000310 57 df 76 be 7f 21 61 bd f1 35 95 3d 28 de 38 3d
       -0.24108635 -0.054963585 0.07285679 0.04513374
000320 b8 e6 8a bd 9e 27 c5 bd 5c 07 a9 bd e2 2f 1b bc
       -0.06782287 -0.09626697 -0.08253357 -0.009471865
000330 4d 95 5a be 47 29 04 3e 46 5d 27 be d8 0b d3 3d
       -0.21346016 0.12906371 -0.16344175 0.103049934
000340 2d 78 10 3d 2f dc 03 3e 0f 4a 4d 3e 85 24 05 bd
       0.03527086 0.12876962 0.20047782 -0.03250553
000350 2c 3c c7 bb 2f 8d 17 be 09 6a 43 ba ff 93 7a 3a
       -0.006080171 -0.14799951 -0.000745446 0.00095587963
000360 4d 22 db ba c6 32 9a be 01 cf 11 be 9e c0 17 bd
       -0.0016718596 -0.30116862 -0.14239122 -0.03704893
000370 cd 81 b8 3d d7 40 ff bc 65 b7 38 be 02 9a f4 bd
       0.090091325 -0.031158848 -0.1803871 -0.11943437
000380 f9 25 40 be b2 97 21 3e 74 ad 82 3e e9 e2 dc 3c
       -0.18764485 0.15780523 0.2552296 0.026963668
000390 45 fa 80 bd bb 29 db bc aa 8b 2d bd fb 15 93 3d
       -0.06297735 -0.026753297 -0.042369522 0.07181927
0003a0 d6 12 a8 bd a5 d7 be bd 15 fa 89 be a7 70 7f bc
       -0.08206718 -0.09318475 -0.2694861 -0.015590823
0003b0 ac 56 c5 3c 7f 08 15 be 8d 75 db bb ed 75 29 3e
       0.02408918 -0.14554022 -0.0066973628 0.16548891
0003c0 9b d7 93 3c 5e 88 17 be e5 fd 98 bd a2 55 ce bb
       0.018047145 -0.14798114 -0.074703015 -0.0062968293
0003d0 7c 49 df 3c 74 9c bb bd 7d c2 f8 3c a3 b7 44 3e
       0.02725672 -0.091607004 0.030366177 0.19210677
0003e0 37 e6 bc 3d ac b3 1f be b7 9e 5e bb 2c 07 e1 3c
       0.092235975 -0.15595883 -0.0033969113 0.02746924
0003f0 96 25 65 bd b2 04 bb bd 8c 34 ab bd aa d0 b1 3d
       -0.055944048 -0.09131755 -0.08359632 0.08682378

parametric_part.linears_Z.0.bias f4 [93]
000000 46 2b ee 3d eb 51 23 bd 4c 35 fa 3d 7a 7d f8 3c
       0.116293475 -0.039873045 0.12217197 0.03033327
000010 2b 92 bd bc 87 db fe 3c 78 32 03 be f5 d7 21 be
       -0.023140987 0.031110538 -0.12812221 -0.15805037
000020 46 40 86 bd 27 dd d1 bc 04 5c aa bd 1a 98 bd bc
       -0.06555228 -0.025618149 -0.08318332 -0.023143817
000030 99 fa 1a 3e 1c b7 02 be a1 00 e9 bc 14 3f a0 3d
       0.15134658 -0.12765163 -0.028442683 0.07824531
000040 f9 c1 c8 bd 92 18 89 3d ad 65 9e 3c 2f d0 f9 bc
       -0.09802622 0.066941395 0.019335592 -0.030494777
000050 55 53 c0 3d 81 05 f7 39 7a 7f 23 3c 3e ab a1 3d
       0.09390894 0.00047115612 0.009979123 0.0789399
000060 39 d2 40 3d b9 bb 9f bc 7f 7d 06 be 55 6a cb 3d
       0.047075484 -0.019498693 -0.1313381 0.099323906
000070 1b 44 4b bd e0 7d 91 3c 4f f2 f8 3d c1 aa 9d bc
       -0.049625497 0.017760217 0.12155592 -0.01924646
000080 06 74 a1 3d 53 ea 9e 3c e7 34 0e be 36 5e ab bd
       0.07883458 0.019398844 -0.13887368 -0.08367579
000090 a5 f3 a8 3b 51 db 6a bd 99 5d 8e 3d 39 2c 14 bc
       0.005155998 -0.057338063 0.06951446 -0.009043747
0000a0 dd e1 f3 3c c4 aa 9a 3d 6e ff 42 3e 54 52 ba bd
       0.029770786 0.07552102 0.19042751 -0.09097734
0000b0 66 01 32 bd f9 03 97 bd 6e 28 cc bd 30 e3 90 bd
       -0.043458365 -0.073738046 -0.09968649 -0.070745826
0000c0 d3 67 94 bd ab 64 cc bc ac dd dc bd 40 18 81 bc
       -0.072463654 -0.024950346 -0.10784468 -0.015758634
0000d0 b5 ae ab 3d 0d 86 e0 bd c2 04 8f 3d 83 ec 11 3e
       0.08382932 -0.10963068 0.06983329 0.14250378
0000e0 46 d3 85 3d af b1 c2 3c c5 c3 3c 3b cb 66 b7 3d
       0.06534438 0.023766367 0.0028803211 0.08955153
0000f0 c5 48 15 bd 0b 33 25 3d 54 b1 67 bd 83 ec be bc
       -0.03644635 0.04033188 -0.056565598 -0.023306137
000100 ff 52 0e bd dd b1 bc 3d 3f fc 30 3d 2f a8 09 bc
       -0.03474712 0.09213612 0.04320931 -0.0084019145
000110 a8 ec b1 bd d4 f1 fb 3d 11 7a 55 3d 71 fc 86 3c
       -0.08687717 0.123019844 0.052118365 0.016477795
000120 17 80 c5 bd f5 ca 12 be 8c a9 ae bd 0f bf 2a 3d
       -0.09643572 -0.14335234 -0.08528432 0.041686114
000130 5e 86 fb bd fe d0 56 bd ef 4b a2 bd cd 01 b0 bd
       -0.12281488 -0.052445404 -0.079246394 -0.085940935
000140 52 a8 30 bc c9 e1 92 3c ef e6 18 bd 3a ae 05 3d
       -0.010782318 0.017929928 -0.03732961 0.03263686
000150 30 cd d2 bd 11 70 31 bc ae aa 3e bd 48 6a 17 bc
       -0.10293043 -0.010829941 -0.04654949 -0.009241648
000160 a8 2b 94 3d be 2f 87 bd e1 b9 ba 3d fc ec 04 be
       0.07234889 -0.06600903 0.09117485 -0.12981027
000170 50 52 96 3d
       0.073399186
